Best_model.pth (torch_old, 873338 bytes, 6 tensors)

hidden.0.weight f4 [256, 784]
0	0xbbafce60	-0.005365178
1	0x3ce4f845	0.027950415
2	0x3d3ab7fa	0.04558561
3	0xb8033653	-3.1283427e-05
4	0x3c2e506f	0.010639294
5	0x3bf2aabd	0.0074056075
6	0xbc186ccd	-0.009303284
7	0x3d29f734	0.041495517
8	0x3cb2d982	0.021832231
9	0x3c955b8f	0.018232135
10	0x3b705e5a	0.0036677332
11	0x3c920743	0.017825728
12	0xbc818fd7	-0.015815658
13	0x3d1a45af	0.03766411
14	0xbbae9740	-0.005328089
15	0x3c820331	0.015870662
16	0x3b8b6445	0.0042538964
17	0x3d2611d4	0.040544346
18	0x3cb3ea4d	0.02196231
19	0x3d573507	0.052540805
20	0x3d057ab1	0.03258771
21	0x3d2bb49a	0.041920282
22	0x3d298afd	0.041392315
23	0xbc8a951f	-0.01691681
24	0x3d18a2c6	0.037264608
25	0x3cc68dfb	0.024237623
26	0x3b426b6a	0.0029666075
27	0x3d33d0d1	0.043900315
28	0xbc07735f	-0.008267253
29	0x3d01a86a	0.031654753
30	0x3c3e8187	0.011627561
31	0x3d1dc06e	0.038513593
32	0x3c069b0d	0.008215678
33	0xbc3a9117	-0.011387131
34	0xba2598a2	-0.00063169945
35	0x3d18c22e	0.03729456
36	0xbc12e0bd	-0.008964715
37	0xbc683c98	-0.014174603
38	0xbbbfab53	-0.005849281
39	0x3d37d167	0.044877436
40	0x3b8bbcac	0.004264435
41	0xbc43ba47	-0.011946267
42	0x3ce53ca3	0.027983015
43	0xbc77e59e	-0.015130429
44	0x3985823e	0.00025464775
45	0x3d3e7903	0.046502125
46	0x3d26838a	0.04065279
47	0x3cd32414	0.02577404
48	0xbc74c68e	-0.014939917
49	0xbc88e2db	-0.016709736
50	0xbc010c5f	-0.007876485
51	0x3d2d05c1	0.042241815
52	0x3a507c5a	0.00079531
53	0xbc0c2cb9	-0.008555585
54	0xbc5a765f	-0.013333886
55	0x3d5ae807	0.053443935
56	0x3c3013bb	0.010746892
57	0x3d5de3cb	0.05417232
58	0x3b8821c4	0.004154416
59	0xbc37dfdf	-0.011222809
60	0x3d25e019	0.04049692
61	0xbbf6bf5c	-0.007530136
62	0x3cd8246e	0.026384559
63	0x3cde4c82	0.027136091
64	0x3d474259	0.04864726
65	0x3d2bddd6	0.041959606
66	0x3c6735f1	0.014111982
67	0x3b0ede5a	0.0021800012
68	0x3ca8458f	0.02054098
69	0x3d1a1613	0.037618708
70	0x3d28826d	0.04114001
71	0xbc26deca	-0.010184953
72	0x3c015dce	0.0078959
73	0x3b7fb38e	0.0039016935
74	0x3d26bb90	0.040706217
75	0x3cf2f9b6	0.029660087
76	0x3c5a6fa8	0.013332285
77	0x3c1c03cf	0.009522392
78	0x3ccadea0	0.024764359
79	0x3cbf6bf9	0.023366915
80	0x3d2bd2e2	0.04194916
81	0x3d539a7f	0.05166101
82	0xbc59c76f	-0.013292178
83	0x3c940f29	0.018073635
84	0x3b05fc08	0.0020444412
85	0x3d30fc8f	0.04320961
86	0x3d2b3eab	0.04180781
87	0x3d14c89c	0.03632413
88	0xbc5fb9cf	-0.01365514
89	0x3c8e1008	0.017341629
90	0x3c364578	0.011124961
91	0x3d49efc1	0.049300913
92	0x3d476a3d	0.0486853
93	0x3c8ce74a	0.017200131
94	0x3b5201f0	0.0032044612
95	0xbce8d184	-0.028420217
96	0x3bd77539	0.0065752533
97	0x3cb70f06	0.02234603
98	0x3d7b096d	0.061288286
99	0xbbbc89db	-0.0057537383
100	0x3cb91c0d	0.022596383
101	0x3c09a393	0.008400816
102	0x3d2f760f	0.0428372
103	0x3be663ae	0.0070309257
104	0x3cbb4540	0.02286017
105	0x3d16ada0	0.036786675
106	0x3cf432ee	0.029809441
107	0x3d590770	0.05298561
108	0x3d1e5e0b	0.038663905
109	0x3d138960	0.036019683
110	0x3d4a6803	0.0494156
111	0x3d57c25d	0.052675594
112	0x3c99ef87	0.018790973
113	0x3d2a1084	0.041519657
114	0x3c86ca48	0.016453877
115	0x3d52783f	0.051384207
116	0xbafbaa30	-0.00192005
117	0x3d320837	0.043464866
118	0x3c04940c	0.008091938
119	0x3d427569	0.047475252
120	0xbb47a2ae	-0.0030461955
121	0x3cb00242	0.021485452
122	0x3d028d8c	0.03187327
123	0xbd03fb53	-0.032222103
124	0xbc87fc2d	-0.016599739
125	0x3d5cdc9c	0.053921327
126	0x3d709ba4	0.05874218
127	0x3d979dfb	0.07403179
128	0x3d2651a3	0.0406052
129	0xbcd02766	-0.025409412
130	0xbca785cc	-0.020449542
131	0x3d75ea51	0.060037915
132	0x3db4feb6	0.08837645
133	0x3d2c4984	0.042062297
134	0x3d59b69a	0.053152658
135	0x3c21c99e	0.009874729
136	0x3c137399	0.008999729
137	0x3d18e1d4	0.03732474
138	0xbc5a8037	-0.013336233
139	0x3c6f3a05	0.014601235
140	0x3d4e4f23	0.05036844
141	0x3cf58b84	0.029973753
142	0x3d0f02b9	0.034914706
143	0x3d55e267	0.052217867
144	0xbc0c71f0	-0.008572087
145	0x3d3b5885	0.045738716
146	0x3d016128	0.031586796
147	0xb9aec30b	-0.00033333185
148	0x3c49396a	0.012281755
149	0x3cbbc9ac	0.022923313
150	0x3c5d2208	0.013496883
151	0x3d5d8a26	0.054086827
152	0x3d862e7d	0.06551836
153	0x3daaade9	0.08333952
154	0x3ddab7c3	0.10679581
155	0x3cc9c433	0.024629688
156	0x3d81d6b5	0.0633978
157	0x3d8a2242	0.067448154
158	0xbd1a20bc	-0.037628874
159	0xbce5cac2	-0.028050784
160	0x3d91efc0	0.07125807
161	0x3dc36736	0.0954117
162	0xbbdb8202	-0.0066988477
163	0x3d0f817b	0.03503559
164	0x39b0f30c	0.0003375042
165	0x37f2eb88	2.8958326e-05
166	0xbbc5af9f	-0.0060328986
167	0x3ca6aad3	0.020345127
168	0x3d2f9ea9	0.04287592
169	0x3cb282aa	0.021790821
170	0x3a54f45a	0.00081235694
171	0xbc0481be	-0.008087574
172	0x3d220798	0.039558023
173	0x3d285ab5	0.04110213
174	0x3cebba92	0.028775487
175	0x3d48f56a	0.04906217
176	0xbc103371	-0.008801327
177	0x3ccb405f	0.024810968
178	0x3c24eab3	0.010065722
179	0x3d22c259	0.039736126
180	0x3d85ff76	0.06542866
181	0x3de0b368	0.10971719
182	0x3d3f780f	0.046745356
183	0x3d0b8030	0.034057796
184	0x3da377ab	0.07981809
185	0x3df13b05	0.11778835
186	0x3d45a836	0.04825612
187	0xbd3767a6	-0.04477658
188	0x3d5f45dc	0.054509982
189	0x3d15d73f	0.036582228
190	0xbc8edbb9	-0.017438756
191	0xbb180a1f	-0.0023199392
192	0x3c1de3dd	0.009636846
193	0x3c8ce801	0.017200472
194	0x3d3abfbb	0.045593005
195	0x3c8781ae	0.016541328
196	0x3d2afa7c	0.041742787
197	0x3c47eddf	0.012202709
198	0xbb269094	-0.0025415765
199	0x3c91f0bc	0.017814986
200	0x3d671fb6	0.056426726
201	0x3d43fc1d	0.047847856
202	0x3d80f99d	0.0629761
203	0x3d8311da	0.06399889
204	0x3ce0f45a	0.027460266
205	0x3cb85874	0.022503115
206	0xbd230536	-0.03979989
207	0xbce31355	-0.02771918
208	0x3d93585b	0.07194587
209	0x3ddaacd6	0.10677497
210	0x3d9b12cb	0.07571944
211	0x3df94fe5	0.12173442
212	0x3de02823	0.109451555
213	0x3e04aee0	0.12957335
214	0xbcfbd050	-0.03073898
215	0xbc954a10	-0.018223792
216	0x3d8c9d88	0.06865984
217	0x3d417813	0.047233652
218	0x3d196399	0.0374485
219	0x3d2533cf	0.04033261
220	0x3c2ad929	0.010427752
221	0x3c59e922	0.013300212
222	0x3d0c2a75	0.034220178
223	0x3d003921	0.031304482
224	0x3d3780ad	0.04480045
225	0x3d0c2a63	0.03422011
226	0x3cfa8e56	0.03058545
227	0x3d4f9d61	0.050687198
228	0x3b8f81e8	0.0043794997
229	0xbbf1e505	-0.0073820376
230	0x3c716bb3	0.01473515
231	0xbc68b47a	-0.014203185
232	0x3c852c5c	0.016256504
233	0xbd1395c3	-0.036031496
234	0xbbcd359d	-0.0062624947
235	0x3de5c9b1	0.1122011
236	0x3e0e36ae	0.13888046
237	0x3d8e26dc	0.069410056
238	0x3d6067cf	0.0547865
239	0x3dc0787c	0.093979806
240	0x3d85fd74	0.06542483
241	0x3d14908d	0.036270667
242	0xbd3cb979	-0.046075318
243	0x3c8c9442	0.017160539
244	0x3e242334	0.16029054
245	0x3db5fc58	0.088860214
246	0x3dc359be	0.09538601
247	0x3dc272d2	0.094945565
248	0x3d4169d5	0.04722007
249	0x3d442c75	0.04789396
250	0x3d122a1d	0.035684694
251	0x3c5de9c3	0.013544503
252	0xbb848fd1	-0.0040454646
253	0x3cbd0eb7	0.023078306
254	0x3cf12a00	0.029438972
255	0x3d15b895	0.036552984

hidden.0.bias f4 [256]
0	0xbd35803b	-0.044311743
1	0xbe410281	-0.18848611
2	0xbd14ec1a	-0.036357976
3	0xbe329c91	-0.17442538
4	0xbd3b9746	-0.045798562
5	0xbdd3cede	-0.10342191
6	0xbdc34340	-0.09534311
7	0xbdc118bb	-0.09428545
8	0xbcd3e9a2	-0.02586824
9	0xbd88f73a	-0.0668778
10	0xbd47caf6	-0.048777543
11	0xbdc5d86f	-0.09660422
12	0xbda4935f	-0.08035921
13	0xbdc1ce0a	-0.09463127
14	0xbe09c4c1	-0.13453962
15	0xbd56eb43	-0.052470457
16	0xbd342a8b	-0.043985885
17	0xbcafcfba	-0.021461356
18	0xbd762771	-0.060096208
19	0xbe16a81b	-0.14712565
20	0xbd32eb73	-0.043681573
21	0xbe7b31bc	-0.24530691
22	0xbc47be02	-0.0121912975
23	0xbdb6fbc0	-0.08934736
24	0xbcf22438	-0.029558286
25	0xbd776538	-0.060399264
26	0xbc9bbc7d	-0.019010777
27	0xbd698d77	-0.057019677
28	0xbc811990	-0.01575926
29	0xbdaa668b	-0.0832034
30	0xbd3ccc11	-0.04609305
31	0xbdb1f698	-0.08689612
32	0xbd4c17ed	-0.049827505
33	0xbdb1acb0	-0.08675516
34	0xbd8a0006	-0.06738286
35	0xbda342ae	-0.079717025
36	0xbce1c063	-0.027557557
37	0xbd9bcd7b	-0.07607552
38	0xbdcbf1ad	-0.09958205
39	0xbda8dd93	-0.08245387
40	0xbd5f9a31	-0.054590408
41	0xbd8d9c25	-0.06914548
42	0xbd942788	-0.072341025
43	0xbdbb6eb0	-0.09151971
44	0xbda2a426	-0.07941465
45	0xbcfb820f	-0.030701665
46	0xbd4ce288	-0.050020725
47	0xbdad61d8	-0.08465928
48	0xbdc16a9f	-0.094441645
49	0xbdc29794	-0.095015675
50	0xbd3642a2	-0.04449714
51	0xbd5a0607	-0.053228404
52	0xbd81c660	-0.06336665
53	0xbcfdc727	-0.030978752
54	0xbd92a529	-0.07160408
55	0xbd5b5f4a	-0.05355767
56	0xbe30d408	-0.17268384
57	0xbe85a496	-0.26102132
58	0xbd22f42d	-0.039783645
59	0xbd4c9217	-0.04994401
60	0xbdbe3207	-0.09286886
61	0xbd8de18c	-0.06927785
62	0xbd6f7a4a	-0.058466233
63	0xbcac6299	-0.021043109
64	0xbd9658bd	-0.07341144
65	0xbe00b5a1	-0.12569286
66	0xbd5a84ca	-0.053349294
67	0xbc368b86	-0.011141663
68	0xbd32918f	-0.043595847
69	0xbd76991d	-0.060204614
70	0xbdbfcbfb	-0.09365078
71	0xbd16587c	-0.03670548
72	0xbd2196c0	-0.039450407
73	0xbe6ffa44	-0.23435313
74	0xbd0d4720	-0.03449166
75	0xbcd041e7	-0.02542205
76	0xbcbcdf09	-0.02305557
77	0xbd803e31	-0.06261862
78	0xbdb2cef5	-0.0873088
79	0xbe53a640	-0.20668888
80	0xbc6e0c61	-0.014529319
81	0xbd7a4c71	-0.061108056
82	0xbd502796	-0.050819002
83	0xbdd443b5	-0.103644766
84	0xbd047346	-0.032336496
85	0xbdbd289f	-0.092362635
86	0xbd5a0c8c	-0.053234622
87	0xbd97985e	-0.074021086
88	0xbd2dcb6f	-0.042430338
89	0xbd45763a	-0.048208453
90	0xbc9ea217	-0.0193644
91	0xbd9aae46	-0.07552771
92	0xbcfbfe68	-0.030760959
93	0xbc82047a	-0.015871275
94	0xbd248be6	-0.04017248
95	0xbd66a5e3	-0.056310546
96	0xbe2876eb	-0.16451614
97	0xbcc65d00	-0.024214268
98	0xbd3e858f	-0.04651409
99	0xbdb48c86	-0.08815865
100	0xbd23c004	-0.039978042
101	0xbdbfda0c	-0.09367761
102	0xbd88b233	-0.06674614
103	0xbd18926d	-0.037249018
104	0xbb1b6618	-0.0023711976
105	0xbd17c354	-0.037051514
106	0xbd0a6feb	-0.03379814
107	0xbd13ab48	-0.03605202
108	0xbd35574f	-0.044272717
109	0xbd92f63f	-0.07175874
110	0xbccbab74	-0.024862029
111	0xbb3a4e05	-0.002842785
112	0xbd681aa2	-0.056666024
113	0xbd6c17c3	-0.05763985
114	0xbd382a3b	-0.04496215
115	0xbd895dc3	-0.06707337
116	0xbd990327	-0.074713044
117	0xbd0cbfb5	-0.034362514
118	0xbdb1410c	-0.08654985
119	0xbd55bb7f	-0.052180763
120	0xbd22ae2b	-0.03971688
121	0xbe1c8d4e	-0.15288278
122	0xbd9d5230	-0.07681692
123	0xbceb0ed6	-0.028693598
124	0xbd63831b	-0.055544954
125	0xbd8150c0	-0.0631423
126	0xbdbd7d28	-0.09252387
127	0xbdc26d7f	-0.09493541
128	0xbd6024ff	-0.054722782
129	0xbe3deff8	-0.18548572
130	0xbd5d8b94	-0.05408819
131	0xbd8d6ca3	-0.069054864
132	0xbd37cfc2	-0.044875868
133	0xbd59cc17	-0.05317315
134	0xbdb6b467	-0.08921128
135	0x3b40ff51	0.0029449055
136	0xbe057e25	-0.13036402
137	0xbdad6e1a	-0.08468266
138	0xbd1544ee	-0.03644269
139	0xbd83b330	-0.06430662
140	0xbd6cf838	-0.057853907
141	0xbd48fda7	-0.049070027
142	0xbd8d30bf	-0.06894063
143	0xbcccc993	-0.024998462
144	0xbd68a052	-0.05679352
145	0xbdc895e9	-0.09794218
146	0xbcb1b747	-0.021693839
147	0xbd5283b1	-0.051395122
148	0xbd2c98d6	-0.042137943
149	0xbd409e09	-0.047025714
150	0xbcebb23d	-0.028771514
151	0xbcbe3539	-0.023218738
152	0xbdba5df9	-0.09099955
153	0xbdbf2f37	-0.093351774
154	0xbd860c91	-0.065453656
155	0xbca948d1	-0.020664604
156	0xbdc1a16c	-0.09454617
157	0xbd1cdb71	-0.038295213
158	0xbd50cdf1	-0.05097765
159	0xbce016ef	-0.027354686
160	0xbdaff131	-0.085909255
161	0xbd6866a8	-0.056738526
162	0xbc9b5bcb	-0.018964669
163	0xbdb55efd	-0.08856008
164	0xbda2bd97	-0.07946318
165	0xbd7f0e29	-0.062269364
166	0xbd98105c	-0.07424995
167	0xbcfaa0d6	-0.03059427
168	0xbcef3bd5	-0.029203335
169	0xbdaa8d09	-0.083276816
170	0xbdb9a0a0	-0.0906384
171	0xbd9c93d7	-0.07645386
172	0xbd0323fc	-0.03201674
173	0xbd4a12a1	-0.049334172
174	0xbd4b2e38	-0.049604625
175	0xbd3710e6	-0.04469385
176	0xbd85b586	-0.065287635
177	0xbd675664	-0.056478873
178	0xbd56ae15	-0.05241211
179	0xbd29675c	-0.041358337
180	0xbb3694ef	-0.0027859767
181	0xbd7247dd	-0.059150565
182	0xbc292101	-0.01032281
183	0xbd212b9f	-0.03934824
184	0xbe8155a4	-0.2526065
185	0xbd93a53f	-0.072092526
186	0xbe3639c5	-0.17795475
187	0xbd9ca517	-0.07648676
188	0xbd47c9fe	-0.04877662
189	0xbd729a9b	-0.059229475
190	0xbd52349d	-0.051319707
191	0xbcf9dbb1	-0.030500265
192	0xbd65c33d	-0.056094397
193	0xbd01d131	-0.03169364
194	0xbd8d7199	-0.06906433
195	0xbd99b3ec	-0.075050205
196	0xbd7ac34a	-0.0612214
197	0xbd5fc788	-0.054633647
198	0xbd8f79c0	-0.07005644
199	0xbd7033c5	-0.05864312
200	0xbd36284a	-0.044472016
201	0xbd2152bd	-0.039385546
202	0xbcb4e909	-0.022083776
203	0x394fe883	0.00019827676
204	0xbd822f63	-0.063566945
205	0xbcb383b4	-0.021913387
206	0xbd0d4236	-0.03448697
207	0xbdc3995c	-0.09550735
208	0xbd709fc1	-0.058746103
209	0xbddc202b	-0.10748323
210	0xbcde72c9	-0.027154343
211	0xbda2c59d	-0.07947848
212	0xbdb4b392	-0.08823313
213	0xbd8aba9b	-0.067738734
214	0xbbedb874	-0.0072546545
215	0xbcc9430e	-0.024568107
216	0xbd2393d0	-0.039935887
217	0xbcf3a66e	-0.029742446
218	0xbd90a453	-0.07062592
219	0xbda158b3	-0.07878246
220	0xbcb98938	-0.022648439
221	0xbd2960a5	-0.041351933
222	0xbdc2ba05	-0.09508137
223	0xbd4754ab	-0.04866473
224	0xbcec3b74	-0.028836943
225	0xbe348637	-0.17629324
226	0xbdb1ba67	-0.086781316
227	0xbd600bb2	-0.054698654
228	0xbd9e8605	-0.07740406
229	0xbd32872d	-0.043585945
230	0xbd2ca584	-0.042150036
231	0xbd1a3aff	-0.03765392
232	0xbda0cb51	-0.078512795
233	0xbd0f406a	-0.03497354
234	0xbd571298	-0.052507967
235	0xbcfaf493	-0.0306342
236	0xbdaf9705	-0.085737266
237	0xbdb905b6	-0.090342924
238	0xbe080e13	-0.13286619
239	0xbd1be02a	-0.038055576
240	0xbd8b5837	-0.06803935
241	0xbd509400	-0.050922394
242	0xbd182456	-0.037144028
243	0xbda2ab4b	-0.07942828
244	0xbcf9fc44	-0.030515797
245	0xbd766ec4	-0.060164228
246	0xbe1ae785	-0.1512738
247	0xbd708b45	-0.058726568
248	0xbd487d52	-0.04894764
249	0xbdb32671	-0.087475665
250	0xbd87adc0	-0.06624937
251	0xbd278d84	-0.040906444
252	0xbd21ddc0	-0.039518118
253	0xbda4e7ef	-0.0805205
254	0xbd9852ec	-0.07437691
255	0xbd656fea	-0.056014933

hidden.1.weight f4 [64, 256]
0	0x3cc98988	0.024601713
1	0xbe8064ea	-0.2507699
2	0x3d1977ce	0.03746777
3	0xbd49e1f5	-0.049287755
4	0x3d9c7dd5	0.07641188
5	0xbec81646	-0.39079493
6	0xbc8251cd	-0.015908146
7	0x3db38c4c	0.08766994
8	0xb80d1edd	-3.3645763e-05
9	0x3bd5af57	0.0065211463
10	0x3b0775e0	0.0020669624
11	0xbd1d9f22	-0.03848184
12	0xbdad194d	-0.08452091
13	0xbdd374f8	-0.103250444
14	0xbd884f19	-0.06655712
15	0xbd5ec621	-0.05438817
16	0x3d942f69	0.07235605
17	0x3d830f79	0.063994355
18	0x3de7f136	0.11325304
19	0xbe6b376e	-0.22970363
20	0x3b5858a0	0.003301181
21	0xbd76c3df	-0.06024539
22	0xbd7c5cd6	-0.061611973
23	0x3d31598e	0.043298297
24	0xbca68f1e	-0.020331915
25	0x3c0f9667	0.008763886
26	0x3d3a01b0	0.045411766
27	0x3c29146b	0.010319809
28	0x3d181fff	0.03713989
29	0x3ba27206	0.0049574403
30	0x3d04e356	0.032443367
31	0xbd4e174e	-0.050315194
32	0xbb85de78	-0.004085358
33	0xbd6d76d2	-0.057974644
34	0x3da04717	0.07826059
35	0xbd31a746	-0.043372415
36	0xbca0ab2a	-0.019612867
37	0xbd58c8f2	-0.05292601
38	0x3d506350	0.05087596
39	0x3df4a2c1	0.11945105
40	0x3d2dafc1	0.04240394
41	0x3d355af8	0.044276208
42	0x3da7be23	0.081905626
43	0x3c82cea5	0.015967676
44	0x3cef3975	0.029202202
45	0x3d4b09d2	0.049569912
46	0xbcf00767	-0.029300405
47	0xbd4b2d66	-0.049603842
48	0x3d222d15	0.039593775
49	0x3cb0497c	0.021519415
50	0xbd720ed5	-0.059096176
51	0xbd9d38fb	-0.07676884
52	0xbd1b54e4	-0.037922755
53	0x3d223c3d	0.03960823
54	0x3cc15bf2	0.023603413
55	0x3c16e9e0	0.009211034
56	0xbde059dc	-0.10954639
57	0xbd930bd9	-0.07179994
58	0x3c662511	0.014046923
59	0x3cb26d88	0.021780744
60	0x3cafd36f	0.021463124
61	0x3d8c0893	0.06837573
62	0x3daf08f9	0.08546633
63	0x3d89136f	0.0669316
64	0xbdc1b6e3	-0.09458711
65	0x3dfc875a	0.12330504
66	0x3d4ea129	0.050446663
67	0xbd8b0d5a	-0.06789656
68	0xbc72b893	-0.014814514
69	0x3a8b34eb	0.0010620629
70	0xbd76062a	-0.060064472
71	0xbce597b6	-0.028026443
72	0x3d07b499	0.033131216
73	0xbe93d65d	-0.28874484
74	0x3d299163	0.041398417
75	0x3dc00938	0.09376758
76	0xbc0f1fcc	-0.008735608
77	0xbd56ee85	-0.052473564
78	0xbda38b8e	-0.07985602
79	0xbe578017	-0.21044956
80	0xbde4e88e	-0.11177169
81	0x3df86290	0.12128174
82	0xbd21b2be	-0.039477102
83	0xbd535dcd	-0.051603127
84	0xbdb1db8d	-0.08684454
85	0xbcee88fe	-0.029118057
86	0xbdba67b1	-0.09101809
87	0x3ce6cd5b	0.028174093
88	0xbcc9c50a	-0.024630088
89	0x3d2e74bc	0.042591795
90	0xbd804522	-0.06263186
91	0x3c69accc	0.014262389
92	0xbd70638a	-0.058688678
93	0xbd3ce672	-0.046118207
94	0xbd98492d	-0.07435832
95	0xbdcd8a97	-0.100361995
96	0xbe143a8f	-0.14475463
97	0xbd5ba035	-0.053619582
98	0xbd481ea3	-0.048857342
99	0x3b7feb7c	0.0039050272
100	0xbb8588a0	-0.004075125
101	0x3b17dfd1	0.0023174176
102	0x3da0f15d	0.078585364
103	0x3d5afa40	0.053461313
104	0xbce83dab	-0.028349718
105	0x3c94cef6	0.018165093
106	0x3d11abd1	0.035564248
107	0xbbdad4e7	-0.006678212
108	0x3d8a6f05	0.067594565
109	0x3cf4be20	0.029875815
110	0xbdcf05ad	-0.101085044
111	0xbcaa6e44	-0.020804532
112	0x3df903fc	0.12158963
113	0x3ded26ee	0.11579691
114	0x3d351d3a	0.044217326
115	0xbd500480	-0.05078554
116	0x3dd5de42	0.10442783
117	0x3dad5e0f	0.08465206
118	0xbdc2922d	-0.09500537
119	0xbd5b8872	-0.05359692
120	0x3d3a4a9a	0.0454813
121	0x3e177fd9	0.14794864
122	0x3e2e6bfe	0.17033383
123	0xbda74444	-0.081673175
124	0x3cae2ea0	0.021262467
125	0xbd769f76	-0.060210668
126	0xbdd73d5d	-0.10509751
127	0x3caf753c	0.021418206
128	0x3dd6d656	0.104901
129	0x3e0c858d	0.1372282
130	0xbdb7f27d	-0.08981798
131	0xbccb4698	-0.024813935
132	0xbd7127d0	-0.05887586
133	0x3de2a017	0.11065691
134	0x3cc062b1	0.02348456
135	0xbdc072cf	-0.09396898
136	0xbe949bf1	-0.29025224
137	0x3d45a30a	0.04825119
138	0xbde06953	-0.10957589
139	0xbdc30ef9	-0.0952434
140	0x3dd168ef	0.102250926
141	0x3d687a91	0.056757513
142	0xbdc453fd	-0.09586332
143	0xbd4fb547	-0.05070999
144	0xbd646a6e	-0.05576556
145	0xbc2f08d3	-0.010683256
146	0xbd665555	-0.056233723
147	0x3dfa4cdd	0.12221692
148	0xbd129fc4	-0.035796896
149	0xbde06c31	-0.10958136
150	0xbcdf5887	-0.027263893
151	0xbd875ee9	-0.066098996
152	0xbc92a0c6	-0.017898928
153	0x3ca0aa33	0.019612407
154	0x3ca2f6ec	0.019893132
155	0x3d3a1a34	0.045435145
156	0x3d150c5d	0.036388744
157	0xbd66a2d6	-0.056307636
158	0xbc897911	-0.016781362
159	0x3d1ccc38	0.038280696
160	0x3bc024f9	0.0058637825
161	0x3d0f1a9b	0.034937482
162	0xbd81d0da	-0.063386634
163	0xbd552978	-0.0520415
164	0xbdeafafb	-0.11473652
165	0x3c373a99	0.011183404
166	0xbd50a520	-0.050938725
167	0x3d561c42	0.052273043
168	0x3c93cec9	0.018042939
169	0x3dbce91b	0.09224149
170	0xbba464a0	-0.0050168782
171	0x3cdf638f	0.027269153
172	0xbcc033b0	-0.023462147
173	0x3de7beac	0.11315665
174	0xbd715578	-0.0589194
175	0xbcac8ff3	-0.021064734
176	0xbc225240	-0.009907305
177	0x3c281334	0.010258485
178	0x3d43a03c	0.047760233
179	0xbd06094e	-0.032723717
180	0x3d1d2f76	0.03837534
181	0x3dedd359	0.11612577
182	0xbd70b543	-0.058766615
183	0xbdc10305	-0.09424404
184	0xbe03ed7d	-0.12883563
185	0x3c357ab6	0.01107662
186	0x3e2d96d9	0.16952075
187	0x3d2f7493	0.042835783
188	0xbdb18438	-0.08667797
189	0xbbc5e0dd	-0.0060387687
190	0x3d2a350b	0.041554492
191	0x3da94c0d	0.08266459
192	0xbd861ce6	-0.06548481
193	0xbdd64f4d	-0.10464344
194	0xbc9eba11	-0.019375833
195	0x3d169439	0.03676245
196	0x3d8c43da	0.06848879
197	0x3d0e8d7c	0.0348029
198	0xbd1380dc	-0.03601156
199	0xbd837aa9	-0.0641988
200	0xbcd7edac	-0.026358448
201	0x3d8e1929	0.06938393
202	0x3c4aa100	0.012367487
203	0x3cbb48fc	0.02286195
204	0x3d00483c	0.031318888
205	0xbc49a5ee	-0.012307627
206	0x3d03e0d0	0.03219682
207	0xbe04e550	-0.12978101
208	0xbd107404	-0.03526689
209	0xbe8920c2	-0.26782805
210	0x3cf696fb	0.03010129
211	0x3c88cca7	0.016699148
212	0x3c5e5420	0.013569862
213	0xbcc87c7d	-0.024473423
214	0x3d6073f2	0.054798074
215	0x3dc226d6	0.094800636
216	0x3cbf93d8	0.023385927
217	0x3c99303d	0.01869976
218	0xbcbb58e0	-0.022869527
219	0xbd01e8c2	-0.031716116
220	0xbdaeb13f	-0.08529901
221	0x3d9828f9	0.0742969
222	0xbcb051df	-0.021523414
223	0x3ce8d1f4	0.028420426
224	0x3d946d74	0.07247439
225	0xbe2a5f43	-0.16637902
226	0xbb2b5cdd	-0.002614788
227	0x3cdacd1f	0.026709137
228	0x3ce3b725	0.027797291
229	0x3c05b5e0	0.008161038
230	0x3cb6a363	0.022294706
231	0xbdf42677	-0.11921399
232	0xbb1a2aba	-0.0023524002
233	0xbd0252fa	-0.031817414
234	0xbcc9c8a3	-0.024631804
235	0xbb19fa5a	-0.0023495168
236	0x3d448ef0	0.04798788
237	0x3bbdf87c	0.005797444
238	0xbeb6ab5b	-0.3567761
239	0xbd543487	-0.051807906
240	0x3da90f5a	0.08254881
241	0x3db24658	0.08704823
242	0xbd11f85d	-0.03563725
243	0xbdb4345b	-0.087990485
244	0xbd6b6a49	-0.05747441
245	0xbdd91df9	-0.1060142
246	0x3bb2c7c0	0.005455941
247	0xbdd30d98	-0.10305327
248	0x3dcfd723	0.10148456
249	0x3c532aa3	0.012888583
250	0x3c0dfede	0.008666722
251	0xbd163d44	-0.03667952
252	0x3db47f41	0.08813334
253	0xbdd0e86f	-0.10200583
254	0xbd415a38	-0.04720518
255	0x3c210538	0.009827904

hidden.1.bias f4 [64]
0	0x3e1b6fda	0.15179387
1	0xbfd35edf	-1.6513327
2	0x3e0e6d35	0.13908847
3	0xbd05245b	-0.032505374
4	0xbebe59d9	-0.37177923
5	0xbeef0b62	-0.46688372
6	0xbd9eee2d	-0.07760272
7	0xbdd54794	-0.10414043
8	0xbd32df00	-0.0436697
9	0xbe1db68c	-0.15401667
10	0x3bba544f	0.00568632
11	0xbd1cbf10	-0.03826815
12	0xbe7c0940	-0.24612904
13	0x3e50bf44	0.20385462
14	0x3e173753	0.14767198
15	0xbcf5cade	-0.030003961
16	0xbe0e60f0	-0.13904166
17	0xbddc9538	-0.10770649
18	0xbdd1530a	-0.102209166
19	0x3e8b4342	0.2719975
20	0x3e567d71	0.2094629
21	0xbece9eec	-0.40355623
22	0x3e87a5cb	0.26493677
23	0xbd762cb6	-0.060101233
24	0x3e89fc7f	0.26950452
25	0xbd66c739	-0.056342337
26	0xbe6c5384	-0.23078734
27	0x3e7b89af	0.24564241
28	0xbd932944	-0.07185605
29	0xbe856480	-0.26053238
30	0x3e0fe92f	0.14053796
31	0x3db90e9d	0.090359904
32	0xbe82a64f	-0.25517508
33	0xbef4c7bf	-0.47808644
34	0xbd32c01b	-0.043640237
35	0xbd91b028	-0.07113677
36	0xbf1106e4	-0.5665114
37	0xbc5a29ff	-0.013315677
38	0xbd42ce32	-0.047559924
39	0xbe6e083b	-0.23245327
40	0xbe39433e	-0.18092057
41	0xbe87bc13	-0.26510677
42	0xbe789a2c	-0.24277562
43	0xbf0ab7b9	-0.5418659
44	0xbe285576	-0.16438851
45	0x3e99c590	0.3003354
46	0xbe7f9c04	-0.24961859
47	0xbdd5d53e	-0.10441063
48	0xbe8bc1aa	-0.2729619
49	0xbe42e245	-0.19031627
50	0xbe32f26d	-0.1747529
51	0xbdf9541c	-0.12174246
52	0x3d0baa0d	0.03409772
53	0xbcc8c4a5	-0.02450783
54	0xbdbc0123	-0.09179904
55	0xbe331dad	-0.17491789
56	0xbdad5c7a	-0.08464904
57	0xbd51ef5c	-0.05125366
58	0xbe1d764f	-0.15377162
59	0x3d67449c	0.056461915
60	0xbf5784fc	-0.84187293
61	0xbe372790	-0.17886186
62	0xbd139398	-0.03602943
63	0xbdb19297	-0.08670538

output.weight f4 [10, 64]
0	0x3e967083	0.29382715
1	0xbef5c62a	-0.4800275
2	0xbd6b40ed	-0.057434965
3	0x3dcfe9f0	0.10152042
4	0x3e2c6e7e	0.16839024
5	0xbbf974bc	-0.007612793
6	0xbd9d61c8	-0.07684666
7	0xbde2bcc8	-0.110711634
8	0x3b1251ea	0.0022326657
9	0x3d65773f	0.056021925
10	0x3de81e3f	0.11333894
11	0x3e91788e	0.28412288
12	0xbe8c06d8	-0.2734897
13	0xbe1d9a48	-0.15390885
14	0xbd1aaebc	-0.037764296
15	0xbccdd8be	-0.025127765
16	0x3df6723f	0.120335095
17	0x3d3a8715	0.04553898
18	0xbe3c3914	-0.18381149
19	0xbe6e3d6d	-0.2326562
20	0x3c349f9c	0.011024382
21	0xbe9755f0	-0.29557753
22	0xbdd98353	-0.10620751
23	0xbe91c4f8	-0.28470588
24	0xbddc9311	-0.10770238
25	0x3d4bbe82	0.04974223
26	0x3e8a0ca1	0.2696276
27	0xbd1671b3	-0.036729526
28	0x3cfc08a8	0.030765846
29	0xbe48cc0e	-0.1960909
30	0x3e8a9105	0.27063766
31	0xbe5cc29e	-0.21558616
32	0x3d97d81c	0.074142665
33	0x3cda5a41	0.026654365
34	0xbdaf20ab	-0.08551153
35	0xbe1caf60	-0.15301275
36	0xbdfac266	-0.1224411
37	0xbe3b1b0b	-0.18272035
38	0xbc9411d3	-0.018074905
39	0xbf1d5852	-0.6146289
40	0x3d14579d	0.036216367
41	0xbce4a3f8	-0.027910218
42	0x3dc81d47	0.09771209
43	0x3c4ad925	0.012380873
44	0x3cca0ae7	0.024663402
45	0x3d02f76c	0.03197424
46	0xbf153c73	-0.58295363
47	0x3c895e08	0.01676847
48	0xbf01129e	-0.5041903
49	0xbec18d18	-0.37802958
50	0xbd6aeee7	-0.05735674
51	0x3cd4c218	0.025971457
52	0xbf39470a	-0.7237402
53	0xbed0d7b7	-0.40789577
54	0xbda7593b	-0.08171316
55	0xbde9c46e	-0.11414419
56	0xbeb8b172	-0.3607288
57	0xbebfd311	-0.37465718
58	0xbea5dd53	-0.3239542
59	0xbdeb3b9f	-0.11485981
60	0x3e14d691	0.14534976
61	0x3d797998	0.060906976
62	0xbe2d49f7	-0.16922747
63	0x3e3b4cff	0.1829109
64	0xbe394239	-0.18091668
65	0xbea8bd8c	-0.32957113
66	0x3eb46b05	0.352379
67	0xbf31fdc0	-0.69527817
68	0xbe05f8e5	-0.13083227
69	0xbed051ba	-0.40687352
70	0x3b3119ea	0.0027023503
71	0xbe81518a	-0.25257522
72	0xbe544b5b	-0.20731871
73	0xbdad715c	-0.08468887
74	0xbe9d1379	-0.3067892
75	0xbe78549f	-0.2425103
76	0xbd4e6afd	-0.050395
77	0x3ec22015	0.37915102
78	0xbc034237	-0.008011392
79	0xbe6fde01	-0.23424532
80	0xbe00a1e7	-0.12561761
81	0x3d526c2d	0.051372696
82	0xbed5d7ae	-0.41766113
83	0x3df166de	0.117871985
84	0xbd24a291	-0.040194098
85	0xbc812ef9	-0.015769469
86	0x3da2cd18	0.07949275
87	0x3ea4c21e	0.3217935
88	0xbd2b305a	-0.04179416
89	0x3d0814a5	0.033222813
90	0xbea9fcb3	-0.33200607
91	0xbe18951b	-0.14900629
92	0xbd70d81d	-0.05879985
93	0xbd6cbc9b	-0.057797056
94	0xbe78bd29	-0.24290909
95	0x3e8b1fe3	0.27172765
96	0xbdb1ffc0	-0.086913586
97	0xbf50b32c	-0.81523395
98	0x3cd169ba	0.02556311
99	0x3df557ac	0.11979613
100	0x3d9882a4	0.07446793
101	0xbd6ac703	-0.0573187
102	0xbcfb314a	-0.030663151
103	0xbebecc37	-0.3726518
104	0xbdc85e8b	-0.09783658
105	0xbb2e40df	-0.002658896
106	0xbf181fbf	-0.5942344
107	0xbd8e64cc	-0.06952819
108	0x3c65d3c7	0.014027542
109	0x3e1ed0c2	0.15509322
110	0xbf0801fa	-0.53128016
111	0xbda74b5a	-0.08168669
112	0xbe8344ca	-0.2563842
113	0x3e000e66	0.12505493
114	0x3d1d1e42	0.038358934
115	0xbd249a33	-0.04018612
116	0xbd20ba65	-0.03924026
117	0x3e98cc7e	0.29843515
118	0xbdc90b52	-0.09816612
119	0xbeb4d1f2	-0.35316426
120	0xbf030c7e	-0.51190937
121	0xbe9a54c4	-0.30142796
122	0xbe404589	-0.18776526
123	0xbdbe5975	-0.09294406
124	0xbe217f95	-0.15771325
125	0xbd9e46a4	-0.077283174
126	0xbdcdaa4b	-0.100422464
127	0xbdb01320	-0.08597398
128	0x3daa7e4a	0.08324869
129	0xbd699327	-0.0570251
130	0x3dd392e1	0.10330749
131	0xbda6aacf	-0.08138048
132	0x3d798429	0.060917053
133	0x3d612b52	0.054972954
134	0xbd8d8c50	-0.06911528
135	0x3df4178c	0.11918554
136	0x3da0db3c	0.07854316
137	0xbdc045ae	-0.0938829
138	0xba194d69	-0.0005848022
139	0xbd823e76	-0.0635957
140	0xbcc04b18	-0.023473307
141	0xbe56e6d4	-0.20986491
142	0x3e17c449	0.1482097
143	0x3dd56a96	0.1042072
144	0x3e0a7d1f	0.13524292
145	0x3db2bf2c	0.087278694
146	0xbe70ed98	-0.23528135
147	0x3d77fe6a	0.060545363
148	0x3c0c2f05	0.008556132
149	0x3be426f2	0.0069626505
150	0x3e9ff50d	0.31241646
151	0x3d182f33	0.037154388
152	0x3e0e518a	0.13898292
153	0xbe1c2206	-0.15247354
154	0xbdc42b24	-0.09578541
155	0xbdd0f45f	-0.1020286
156	0xbe40e082	-0.18835643
157	0x3e77c464	0.24196011
158	0xbd3fb661	-0.04680479
159	0x3d22f6bf	0.039786097
160	0xbdab6f74	-0.08370867
161	0xbe64646a	-0.2230393
162	0x3d87b360	0.0662601
163	0xbd92f043	-0.071747325
164	0x3d17bbdb	0.037044387
165	0xbe6f61c0	-0.23377132
166	0x3d05665f	0.03256833
167	0xbdd37cd1	-0.10326541
168	0xbd43797e	-0.047723286
169	0xbdcfd4dd	-0.10148022
170	0xbda1cb8f	-0.07900154
171	0x3d9d761b	0.076885425
172	0x3d5e32f0	0.054247797
173	0x3cffc280	0.031220675
174	0xbe5da3a7	-0.2164446
175	0x3bc66428	0.00605442
176	0xbe0c84d6	-0.13722548
177	0xbdf195f7	-0.11796182
178	0xbd3c042e	-0.045902424
179	0x3ca3742d	0.019952858
180	0x3e1d55de	0.15364787
181	0x3d3d61ee	0.04623597
182	0x3e9909d9	0.29890326
183	0xbde551d3	-0.11197247
184	0xbe244d82	-0.16045192
185	0xbe3eac8c	-0.18620509
186	0x3daa0c75	0.08303157
187	0xbcf04c19	-0.029333161
188	0x3e1a006d	0.15039225
189	0x3e03fd99	0.12889709
190	0x3dc09a43	0.09404423
191	0x3e773369	0.24140705
192	0x3c70e99d	0.014704135
193	0x3dce6fd5	0.10079924
194	0xbde5ba66	-0.11217193
195	0xbe749390	-0.23884416
196	0xbe31ea08	-0.17374432
197	0x3dbe0c72	0.092797175
198	0xbc289855	-0.010290225
199	0x3eb32914	0.34992278
200	0xbd927a25	-0.071522035
201	0xbcbc779f	-0.023006259
202	0xbe828758	-0.25493884
203	0x3c98ffe8	0.018676713
204	0xbe9f48cb	-0.31110224
205	0x3dd68a59	0.104756065
206	0xbe2f19f2	-0.17099741
207	0x3e8b3746	0.27190608
208	0xbd9d9d82	-0.07696058
209	0x3d281fa9	0.04104582
210	0xbecbfe78	-0.39842582
211	0x3e783841	0.24240209
212	0xbe818804	-0.25299084
213	0xbdeee99c	-0.11665651
214	0x3da36517	0.07978266
215	0xbd8e2536	-0.06940691
216	0x3e60af80	0.21941948
217	0xbccd1b83	-0.025037533
218	0x3d89df11	0.06732
219	0x3e813b73	0.2524067
220	0xbd45eff2	-0.048324533
221	0x3ddfb769	0.109236546
222	0x3e1b76b2	0.15181997
223	0xbe156053	-0.14587526
224	0x3d57e4fd	0.052708615
225	0xbecf8f23	-0.40538892
226	0x3cc76f42	0.024345044
227	0xbe4fd6f9	-0.2029685
228	0xbe094fbe	-0.13409325
229	0xbe0fd430	-0.14045787
230	0xbbafe23a	-0.0053675445
231	0xbe7075ca	-0.23482433
232	0xbe1b9947	-0.1519519
233	0xbcc8d148	-0.024513856
234	0xbe28c65e	-0.16481921
235	0xbe1b02c1	-0.1513777
236	0x3d577d00	0.052609444
237	0x3d31ccd4	0.04340823
238	0xbe38a399	-0.18031158
239	0xbbe8a257	-0.0070994305
240	0xbd894176	-0.06701939
241	0xbe5cb378	-0.21552837
242	0x3d4d1d52	0.05007679
243	0x3cd48104	0.025940426
244	0xbd94bcd9	-0.07262582
245	0xbdf9b722	-0.12193133
246	0xbdeaa2ef	-0.11456858
247	0xbd9abe92	-0.0755588
248	0xbe1efc28	-0.15525877
249	0xbe54f1d2	-0.20795372
250	0x3e8940de	0.26807302
251	0x3e70a897	0.23501812
252	0x3df71ade	0.120656714
253	0x3db8e78f	0.09028541
254	0xbe56d9c5	-0.2098151
255	0xbde1f7b1	-0.110335715

output.bias f4 [10]
0	0xbf178241	-0.59183127
1	0xbca2711e	-0.01982933
2	0xbdb81baa	-0.089896515
3	0xbe86a176	-0.2629506
4	0x3f1990d1	0.599866
5	0x3badcb62	0.005303786
6	0xbeb9fc5c	-0.36325347
7	0xbe06a8f7	-0.13150392
8	0x3e9c714a	0.30555183
9	0x3ee1b103	0.44080362
