checkpoint.pth (torch_old, 972497 bytes, 8 tensors)

hidden.0.weight f4 [256, 784]
000000 77 15 a1 3e 38 0f 91 3e 7c 68 82 3e 9b ae 87 3e
       0.3146169 0.28331923 0.2547034 0.265004
000010 ed ca 9c 3e 1c 31 ab 3e d8 3a a3 3e 60 6d 7c 3e
       0.3062357 0.33435905 0.31880832 0.24651098
000020 f3 8c 86 3e d3 46 65 3e dd 21 51 3e b9 01 52 3e
       0.2627941 0.22390299 0.20423074 0.2050847
000030 9e b2 4a 3e 5c e1 27 3e e1 72 45 3e b2 bc 0f 3e
       0.197947 0.16394562 0.19282104 0.14036825
000040 04 56 2d 3e d4 b3 55 3e c8 07 57 3e f1 4d 57 3e
       0.16927344 0.2086938 0.20999062 0.21025826
000050 4b 42 87 3e 1e c9 92 3e 1e af 9e 3e bf a6 96 3e
       0.26417765 0.28669065 0.3099298 0.29424092
000060 a1 5d 96 3e b4 2a 9e 3e b8 ff 8f 3e 23 d7 9c 3e
       0.29368308 0.30891955 0.28124785 0.30632886
000070 09 a4 8e 3e 53 78 8b 3e 9b 52 77 3e ce b9 a4 3e
       0.27859524 0.27240238 0.24152605 0.32173008
000080 bb 53 af 3e 67 1d 9b 3e 31 7c 98 3e 2a 1b 3c 3e
       0.3424357 0.3029587 0.2978225 0.18369737
000090 95 65 2f 3e d8 23 1a 3d e0 03 27 3d 64 b0 3d 3d
       0.17128594 0.03763184 0.04077518 0.046310797
0000a0 5d 90 3a be f1 b2 9e be 49 99 75 be 3e 36 6b be
       -0.18219133 -0.30995896 -0.23984255 -0.2296991
0000b0 54 a7 1e be 1d 79 18 3d 9e 6b e5 3c 79 13 f3 3d
       -0.15493518 0.037224878 0.028005417 0.118689485
0000c0 69 f1 4f 3e 2a d6 70 3e d8 b2 86 3e 42 77 79 3e
       0.20306934 0.23519197 0.26308322 0.243619
0000d0 59 65 89 3e ef f6 88 3e 19 e9 9d 3e f6 a4 7d 3e
       0.26835135 0.26750895 0.30841902 0.24769959
0000e0 3c b7 96 3e a5 f0 7f 3e 6c d3 97 3e d1 42 83 3e
       0.29436672 0.24994142 0.2965349 0.25636914
0000f0 01 42 a5 3e 6b 24 93 3e a9 a0 82 3e b1 21 3c 3e
       0.3227692 0.28738722 0.255132 0.18372227
000100 db dd 0a 3e ab 12 6a 3d 9d da d0 3d aa 5f 65 3c
       0.13561194 0.05714671 0.10197947 0.013999859
000110 e0 49 67 be a9 67 60 be fe 68 80 be 9a b1 27 be
       -0.22586775 -0.21914543 -0.25080103 -0.16376343
000120 0d 41 4c be 43 ea c1 3a 32 52 5c 3c ae 56 b5 3d
       -0.1994669 0.0014794547 0.013447331 0.088544235
000130 1a 70 4e 3d 93 04 06 3e 51 52 19 3e dc c5 6f 3e
       0.050399877 0.13087682 0.14972807 0.23415321
000140 9c 25 5d 3e 3c 2c 85 3e 29 92 84 3e 4b af 8e 3e
       0.21596378 0.2601031 0.2589276 0.27868113
000150 5e 95 8d 3e 39 13 8e 3e 77 9f 7f 3e 52 b9 99 3e
       0.2765302 0.2774904 0.24963175 0.300242
000160 3e 45 9d 3e 35 22 59 3e 71 95 66 3e 00 7e 4b 3e
       0.3071689 0.21204455 0.22517945 0.19872284
000170 31 39 c4 3d ec b6 a9 3d cf 16 ee 3d 07 6a bd 3d
       0.09581221 0.08286843 0.11625444 0.09248739
000180 51 b2 1d be ea 1f 8c be 7b ec 96 be 59 5b a4 be
       -0.15400054 -0.27368098 -0.29477295 -0.32100943
000190 97 ed 87 be c2 b6 d1 bd 39 03 75 be 34 80 aa bd
       -0.26548454 -0.102399364 -0.2392701 -0.08325234
0001a0 7f e4 85 3d 47 7f 11 3d 45 df e1 3c ea fe af 3d
       0.06537723 0.03552177 0.027572284 0.08593543
0001b0 47 aa 2c 3e d0 85 68 3e 79 af 7b 3e 29 59 a0 3e
       0.1686183 0.22707295 0.24578656 0.31318024
0001c0 d5 58 76 3e 6a 6b 86 3e 9d 21 90 3e dd 46 b2 3e
       0.24057324 0.26253825 0.28150645 0.3481969
0001d0 64 ed a3 3e 85 6f 80 3e 93 1e 8c 3e 89 12 10 3e
       0.32017052 0.25085083 0.27367076 0.1406957
0001e0 4c 22 31 3b ec 29 69 bc 51 20 bd 3d 32 0f 1d bd
       0.00270285 -0.014231186 0.092346795 -0.03834457
0001f0 fe f8 bd bd 95 73 e9 bd 00 45 37 be f0 94 54 be
       -0.09276007 -0.11398999 -0.17897415 -0.2075994
000200 7c 38 a1 be f0 1c 64 be 85 8c 80 be 3f b5 e8 bd
       -0.31488407 -0.22276664 -0.25107208 -0.11362695
000210 c4 93 7b bd 7e 0d 17 3d 22 58 d6 3d bb fc 4a 3d
       -0.061420217 0.0368781 0.10466029 0.04955743
000220 8d 9e 06 3e 57 03 1b 3e c0 e4 91 3e 9b 76 8d 3e
       0.1314642 0.15137993 0.28494835 0.2762955
000230 3d df 95 3e 7e 68 78 3e 41 f6 8d 3e 32 87 a4 3e
       0.2927188 0.2425861 0.2772694 0.32134396
000240 16 a6 a1 3e 09 c3 92 3e c5 ce 6b 3e d0 ba ec 3d
       0.31572026 0.28664425 0.23028095 0.11559069
000250 40 4e fc 3c ec 97 b8 bc 1a a4 24 bd 2f c8 3a be
       0.030799031 -0.02253338 -0.040195562 -0.18240426
000260 24 73 07 be fe 34 22 be d2 f3 96 be f7 0b 2f be
       -0.13227516 -0.15840527 -0.29482895 -0.17094408
000270 17 87 73 be 0a f1 98 bd c3 9b df bc 7e 27 4f be
       -0.23782001 -0.074678496 -0.027295953 -0.20229909
000280 24 e9 40 bc 73 31 d3 3b 07 48 0c 3d 6d 8a 8b 3d
       -0.011774335 0.006445104 0.034248378 0.06813512
000290 94 77 a5 bc c2 80 a6 bc d4 15 63 3e 2d e2 75 3e
       -0.02019862 -0.020325068 0.22176296 0.2401206
0002a0 b4 8a 94 3e 5e 72 56 3e c8 51 8a 3e f7 32 7a 3e
       0.29012072 0.20942065 0.2701552 0.24433504
0002b0 51 3a 66 3e fd 67 75 3e fc c1 01 3e d7 dd fd 3d
       0.22483183 0.2396545 0.12671655 0.12395828
0002c0 59 55 af bd 13 f5 37 be ed 5e 0b be 7e f6 6d be
       -0.08561201 -0.17964582 -0.1361043 -0.2323856
0002d0 26 5b 42 be c2 01 86 be 6a 9b ca be e3 d5 9c be
       -0.18980083 -0.26173216 -0.39571697 -0.30631933
0002e0 15 3a 76 be 00 d7 01 be 35 01 f7 bc fc 01 71 be
       -0.24045594 -0.12679672 -0.030151943 -0.23535913
0002f0 68 de 34 be f6 e4 29 be 1f ea 15 be 6c 06 20 be
       -0.17662966 -0.16591248 -0.14640091 -0.1562745
000300 c3 69 47 be 55 36 1f bd 1f 46 4b 3d 3c 80 81 3e
       -0.19473939 -0.038870174 0.04962742 0.25293148
000310 cd 77 97 3e a1 f5 2e 3e 8c ac 6b 3e 23 e3 80 3e
       0.29583588 0.17085887 0.2301504 0.25173292
000320 25 fd 78 3e 42 a4 01 3e 19 cb 38 bc de 9b 84 bd
       0.24315317 0.12660316 -0.011278891 -0.06475042
000330 50 49 46 bd 6f de 98 bd 99 11 19 be 00 1e 80 be
       -0.04840976 -0.07464301 -0.14948119 -0.25022888
000340 ce 94 65 be 55 b2 d9 be c8 21 27 bf e4 4d 4f bf
       -0.22420046 -0.4251887 -0.6528592 -0.80978227
000350 f2 ab df be 8a 6d 41 bd 98 e5 04 3d 3b 0f 47 be
       -0.4368587 -0.047223605 0.03244552 -0.19439404
000360 19 fe bf be 6d 96 26 bf 6a a6 00 bf 39 bb 72 be
       -0.3749855 -0.6507328 -0.5025393 -0.23704232
000370 7a 6d 95 bd 08 a6 ae be 77 06 d8 be 10 97 03 3e
       -0.072962716 -0.34111047 -0.42192432 0.12850595
000380 6f f8 7e 3e dd e8 36 3e b7 75 88 3e bf 9d 76 3e
       0.24899457 0.17862268 0.2665231 0.24083613
000390 e7 33 1a 3e 99 eb ba 3d 16 e1 e8 bc d5 26 61 bd
       0.15058862 0.09126968 -0.028427642 -0.054968674
0003a0 4a fa 94 bd ad 38 07 3d 44 b6 5e be 8a 52 85 be
       -0.07274301 0.033013035 -0.21749216 -0.26039535
0003b0 ce eb 34 be b4 0c 06 bf d2 92 5c bf 32 62 a7 bf
       -0.17668077 -0.52363133 -0.8616153 -1.3076842
0003c0 75 d4 82 be 90 68 8d 3f 6c 05 de 3e c6 4f 1a bf
       -0.25552717 1.1047535 0.43363512 -0.60277975
0003d0 eb a3 90 bf 5d 6f 94 bf 68 66 89 bf 21 19 19 bf
       -1.1300024 -1.1596485 -1.0734377 -0.5980397
0003e0 55 6e 80 bd 27 bd f6 be d6 6f 6d bf 31 3f 78 3d
       -0.06271044 -0.48191187 -0.92748773 0.06060714
0003f0 36 a0 63 3e 43 d8 62 3e 3c 27 a9 3e 26 95 81 3e
       0.22229084 0.2215281 0.33037746 0.25309104

hidden.0.bias f4 [256]
000000 02 ef 8c be 85 bf b1 be a2 61 44 be 92 26 83 be
       -0.27526098 -0.3471643 -0.19177869 -0.25615364
000010 f1 20 1c bc 0e cf 93 bd 59 da b4 be c5 65 96 be
       -0.009529338 -0.07217227 -0.35322836 -0.2937452
000020 7f 96 9e bc 9d 73 07 bc 53 19 93 bb 20 31 a1 bd
       -0.019358872 -0.00826731 -0.004489103 -0.07870698
000030 7d dc 26 be 1f 8b 83 be d7 fd 32 be 90 56 65 be
       -0.16295047 -0.25692078 -0.17479645 -0.22396302
000040 02 92 89 ba a0 ab 8c bd 9b 25 1a be a4 ca d1 bc
       -0.0010495784 -0.06868672 -0.15053408 -0.025609322
000050 2d 0e 42 bd d9 78 af be ca f2 0a bc dd ba 66 be
       -0.0473768 -0.34271887 -0.008480737 -0.2253222
000060 eb cb 28 be 8f ab c0 3d a4 00 99 bd ab 2f 86 be
       -0.16484039 0.09407722 -0.07470825 -0.26208243
000070 3d fb c9 be 31 ac 80 be 96 8b 95 bc 2f 35 ed bc
       -0.39449492 -0.25131372 -0.018255036 -0.028956024
000080 f4 c9 3e bc 21 fb 31 be 8d 41 9a bd f7 f5 2d be
       -0.011644829 -0.17380954 -0.07532034 -0.1698836
000090 2f 68 7f be 15 77 9d bd eb 95 e9 bd 1b e3 29 bc
       -0.24942087 -0.07688729 -0.11405548 -0.010369088
0000a0 4c 1d 28 be 3c 3a f0 bc de bd 87 be ef 67 7f be
       -0.16417426 -0.029324643 -0.26512045 -0.24941991
0000b0 bf be 50 be 74 5a 4d 3c 71 4e a6 be b0 40 7c be
       -0.20385264 0.012533773 -0.3248172 -0.24634051
0000c0 cc 81 c5 bd 59 ca e6 bd 0c d5 73 be 77 68 42 bd
       -0.096438974 -0.112690635 -0.2381174 -0.047462907
0000d0 eb 44 3e be d0 c3 8b be 74 dd 5c bc 9b 5e 88 be
       -0.18580978 -0.2729783 -0.013480533 -0.26634678
0000e0 94 8a f9 bd f4 e2 a0 be b3 3a 93 be 1a 39 81 bd
       -0.12184635 -0.31423151 -0.2875572 -0.063097194
0000f0 1c 18 fc bc 36 48 30 be b4 c4 7a be d3 72 b3 be
       -0.030773215 -0.17215046 -0.24489099 -0.3504854
000100 f4 85 f2 bd d2 77 7a be 10 f3 e4 be 49 3b 09 bd
       -0.11841956 -0.2445977 -0.44716692 -0.033503804
000110 39 b2 23 bd c9 a6 5b be fe 86 87 be 03 a8 10 be
       -0.03996489 -0.21450342 -0.26470178 -0.14126591
000120 b1 a4 9d be e6 ce d1 be d8 f5 b4 bd 77 39 d3 be
       -0.30789712 -0.40978163 -0.088359535 -0.4125478
000130 dd 73 ce bd 9a 27 49 bd 35 2d c5 be 16 65 a1 bb
       -0.10080693 -0.049110033 -0.38511053 -0.0049253805
000140 ee 61 a2 be 50 e1 b5 bd ed c5 58 be 0b 18 73 bd
       -0.3171534 -0.088808656 -0.21169253 -0.0593491
000150 89 16 b3 bd af eb 61 bd a6 5d 99 bd 52 3d 89 bd
       -0.087445326 -0.055156406 -0.07488565 -0.06701149
000160 46 aa ad be 5d ba 88 be 76 25 86 be 7a f2 e0 bc
       -0.3391897 -0.26704684 -0.26200455 -0.027459372
000170 03 63 2f be e6 ae a6 be 63 1b de bd 44 93 c1 bd
       -0.17127614 -0.32555312 -0.10845067 -0.09451917
000180 48 3f 07 3c d3 a6 0f bd fa b1 74 bd c8 ad 51 be
       0.0082548335 -0.035071205 -0.059740044 -0.20476449
000190 b4 a1 8b bd b3 a2 20 be 00 fe 3e 3e de e2 ec be
       -0.06817952 -0.15687065 0.18651581 -0.46266836
0001a0 5e 2a c2 be ca fc 21 3e 7e 5f 1f be a0 7e 5e be
       -0.3792295 0.15819088 -0.15563771 -0.21727991
0001b0 1d 8d 8a bd 59 ca 0b be d9 cf 56 be fb db 19 be
       -0.067651965 -0.13651408 -0.20977725 -0.15025322
0001c0 6f dd 9e be d8 b9 15 3b 18 c5 da bd dd f8 a9 be
       -0.31028315 0.0022846367 -0.10682124 -0.3319768
0001d0 9a f4 c2 bd 80 24 2a be da 14 0d be bc c6 68 be
       -0.0951931 -0.16615486 -0.13777485 -0.22732061
0001e0 ed a3 4c 3e 82 87 6f bd 4e e4 8c be 8c 4d 62 bd
       0.19984408 -0.05847884 -0.27517933 -0.055249736
0001f0 09 94 25 be 0c 3b f0 bd dd 8f 0f be ce 1c 90 be
       -0.16169752 -0.11730012 -0.14019723 -0.28146976
000200 b3 c6 97 be ab 97 1d be 91 db f2 bd f7 dc 78 be
       -0.29643783 -0.15389888 -0.11858285 -0.24303041
000210 ab b1 44 bd 33 8b 09 be 34 d5 b7 be eb 86 2e be
       -0.048021 -0.13432007 -0.3590485 -0.17043655
000220 5c 06 85 bd 1d 9c a6 be ef fc 9a bb 92 3d 7a 3e
       -0.064953536 -0.3254098 -0.004729859 0.2443755
000230 09 e6 ee bd 81 04 84 bd 97 f9 68 bd f0 a2 27 be
       -0.116649695 -0.064461716 -0.056878652 -0.1637075
000240 0e 88 81 ba 13 89 c3 3c 67 98 72 be b3 4f ad bd
       -0.0009882466 0.023869073 -0.2369095 -0.08462467
000250 6f 0c 96 be 35 63 91 be ce 00 e1 bd 72 90 1e be
       -0.2930636 -0.28396 -0.109864816 -0.15484789
000260 fa 67 2f be e4 d5 7d be df 06 7e bd f9 56 08 3e
       -0.17129508 -0.24788624 -0.06201827 0.13314427
000270 e7 5f 46 be 9a 1d 74 bd cb 4b 1d be d5 7d 38 bd
       -0.19372521 -0.059598543 -0.15360944 -0.045041878
000280 64 21 a6 bd 67 99 70 be 53 8a 3f be 21 9e 25 bd
       -0.081118375 -0.23496018 -0.1870511 -0.040434007
000290 05 65 47 be f1 e0 f9 be bb 90 2f be 64 a0 45 be
       -0.1947213 -0.4880443 -0.17145054 -0.19299465
0002a0 c6 04 24 be 3b 5b 95 bd 9a bc c6 be 68 aa 70 be
       -0.16017446 -0.072927915 -0.38815767 -0.23502505
0002b0 9a 1f bb bd ec 33 96 be a1 22 8c be d6 6b e8 bc
       -0.09136887 -0.29336488 -0.2737017 -0.028371733
0002c0 cc 66 a9 bc 2e f5 33 be 9a a8 da bd 21 4d c6 bd
       -0.0206789 -0.17573997 -0.106766894 -0.0968268
0002d0 f3 d7 38 be cf 5f 97 3e 03 0e 8c be 32 65 9f be
       -0.18051128 0.29565284 -0.2735444 -0.31131893
0002e0 11 0e 65 bd 79 61 c7 bd 40 a1 da bc c5 18 8f bd
       -0.055921618 -0.09735388 -0.026688218 -0.06987146
0002f0 f8 94 5b be 0c 12 16 be 40 3a 3d be 5b 3e a4 be
       -0.21443546 -0.14655322 -0.18479252 -0.32078823
000300 94 c7 96 be 92 aa 8a be 77 a9 27 be ca 7d 0d bd
       -0.2944914 -0.2708326 -0.1637324 -0.03454379
000310 6d fb 99 be c4 c8 73 be c3 6e 18 bd 29 eb 35 bd
       -0.30074635 -0.23807055 -0.037215006 -0.04441372
000320 df 66 87 be a7 e5 a5 be 19 e7 9e be 03 b5 94 bd
       -0.26445672 -0.32401773 -0.3103569 -0.07261088
000330 73 6f 27 be 48 b9 3c bd d2 5d e4 bd 9a c5 04 be
       -0.16351108 -0.046075135 -0.11150707 -0.12966004
000340 ec 2c 77 3c f5 0e 00 be 88 d6 38 be 78 e5 70 be
       0.015086394 -0.12505706 -0.18050587 -0.23525035
000350 38 0d 79 be 58 67 b1 bd f8 59 a3 bc e6 21 12 be
       -0.24321449 -0.086622894 -0.019940361 -0.14270744
000360 2c 9e a5 be 25 b6 c0 be ae 8b dc be ca bb 48 be
       -0.32347238 -0.37638965 -0.43075317 -0.19602886
000370 0d 31 1c be b8 3f 04 be be 0d 0f be 5b 18 14 be
       -0.15253086 -0.12914932 -0.13970086 -0.14462416
000380 0a 64 81 be a7 27 78 be f6 ae 7e bd 30 df 92 be
       -0.25271636 -0.24233876 -0.062178575 -0.28685904
000390 f0 c2 1b be 55 37 e4 bc 93 f4 d2 be 49 a7 ac bd
       -0.15211082 -0.027858416 -0.4120222 -0.084303446
0003a0 ba 42 66 be 5a f7 41 be 66 d0 43 be 5f d6 73 be
       -0.22486392 -0.18942013 -0.19122466 -0.23812245
0003b0 96 42 5d be f4 12 96 bd 90 d3 2e be 60 16 41 be
       -0.21607432 -0.07327834 -0.17072892 -0.18856192
0003c0 ea 3c ab be 27 e2 c9 bc 2c 26 0f bc ec f9 eb be
       -0.3344491 -0.02464397 -0.008737128 -0.46089113
0003d0 af f6 10 be 11 73 ad bc 2f da 6d bd 82 cb 0f be
       -0.14156602 -0.021173032 -0.058069404 -0.14042476
0003e0 15 87 4b bd 0e c5 10 be 22 fd bf bc 77 82 05 3e
       -0.04968937 -0.1413767 -0.023436133 0.1303805
0003f0 4c 32 9f be 26 ee 7a bd 27 b7 6c bd f4 e3 30 be
       -0.3109306 -0.061262272 -0.057791855 -0.17274457

hidden.1.weight f4 [128, 256]
000000 c9 1d d4 be 52 45 50 be 8f a9 8c bd cf 00 85 be
       -0.41428974 -0.20338944 -0.06868278 -0.2597718
000010 05 9f 8b bc e2 b0 df 3c 90 fd 04 bf 55 14 cc bc
       -0.0170436 0.027306024 -0.51949406 -0.024912039
000020 e3 05 e2 bc 86 06 0b 3d 25 3e 1d 3c ae 4d 11 3d
       -0.027590698 0.033941768 0.009597336 0.03547447
000030 e2 96 ae bd a7 5b c2 be bc cd b1 bb ee e2 91 be
       -0.08524872 -0.3796055 -0.005426137 -0.28493446
000040 34 40 40 3d 9d cf f6 bb 0d a1 75 bd be 7d dd 3c
       0.04693623 -0.0075320737 -0.059968043 0.027037498
000050 2c da 0c bd 0a 04 95 bd 9f b8 3b bd 77 d6 08 bf
       -0.034387752 -0.07276161 -0.045830365 -0.5345225
000060 a8 75 49 3d 1e 2b ea be e4 3d 3c bd 14 6d 85 3e
       0.04918447 -0.4573602 -0.04595746 0.26059783
000070 b7 65 c1 bd cf 7d 91 3d b8 f4 68 be a7 cb 0b 3d
       -0.09443229 0.07104074 -0.22749603 0.034129765
000080 04 d4 b8 3c 5f 46 9b 3d a7 fd 8a 3d 4e 23 79 3d
       0.022562034 0.075817816 0.067866616 0.060824685
000090 ee 89 d0 be 4a c3 d7 bc fd 0d 02 3e d4 d0 1f bd
       -0.40730232 -0.026338238 0.12700649 -0.039017513
0000a0 7a fc df be 2f 32 f3 bd b1 87 1a 3d 61 d8 5d be
       -0.43747312 -0.11874806 0.03772706 -0.21664573
0000b0 54 b8 87 be fc 10 8e bd 4e f4 d5 bc 1c 10 73 be
       -0.2650782 -0.06936833 -0.02611747 -0.23736614
0000c0 bb 1f b2 bd 5d 2d 0c 3e 81 c6 76 bc 39 02 29 3d
       -0.08697458 0.1368918 -0.015061975 0.041261885
0000d0 f7 b4 0d bf d1 2c 18 bf 88 fc 81 bc 4c c2 1b 3e
       -0.55354255 -0.59443384 -0.015867487 0.15210837
0000e0 b7 1c eb 3c 39 35 0a be 8c 66 04 bf 37 d2 2e be
       0.028700216 -0.13496865 -0.51718974 -0.17072378
0000f0 e4 c2 ef 3b 89 d6 c1 bd 2c 00 19 be dc 87 d2 be
       0.007316934 -0.094647475 -0.14941472 -0.41119277
000100 37 e2 8d be 66 05 23 be de 1f b2 3e e2 38 1b bc
       -0.2771165 -0.15920028 0.34789938 -0.009474011
000110 3b 87 ae bc 68 b7 ea bd 4c c4 82 3d f6 0f 77 3d
       -0.021304717 -0.11460763 0.06385097 0.060317956
000120 67 74 85 be bc 83 18 bf 01 3f 42 bf 38 6d 4c be
       -0.2606537 -0.5957601 -0.75877386 -0.19963539
000130 70 ee d5 bc 52 82 4c bd d5 19 e3 be b1 42 b1 be
       -0.026114672 -0.04992897 -0.44355646 -0.34621194
000140 74 a9 a4 3d 7d eb 23 bd c0 1d b7 3d cc a7 0a 3d
       0.08040133 -0.0400195 0.08941221 0.03385143
000150 80 6b ed bd ac 3f c8 bc 8e e8 b6 bd 17 b5 1d bf
       -0.115927696 -0.024444424 -0.08931075 -0.61604446
000160 a8 28 17 bd 56 94 30 3b a5 63 32 3e b3 90 51 3d
       -0.036904007 0.0026943884 0.17420824 0.051163387
000170 c3 df 81 be 4e 28 5e be 08 1f 2c bf bf ba 7d 3c
       -0.2536603 -0.21695063 -0.6723485 0.015486418
000180 68 6e 9b 3d 2c 35 fb 3b a6 57 1c bd 06 32 f0 be
       0.07589418 0.0076662507 -0.038169526 -0.46913165
000190 58 65 57 bc ae cd a0 be 20 2d 7b be cf 80 b7 be
       -0.013146721 -0.3140692 -0.24528933 -0.3584046
0001a0 1a dc a5 be c0 73 11 bf 0e eb 9a be bd 62 d4 bd
       -0.32394487 -0.56817245 -0.30257457 -0.10370395
0001b0 e4 26 ab 3d 6a c4 44 3d d3 be e2 bd aa e0 bc 3d
       0.08357027 0.048038878 -0.11071553 0.09222539
0001c0 33 ed d9 be aa 4a 48 bd 92 d3 0c 3d dd 12 b2 3d
       -0.4256378 -0.04889933 0.034381457 0.08695004
0001d0 a0 ce 8e bb e5 6d 9e be e6 6e a1 be 09 d5 fb 3d
       -0.0043581277 -0.30943218 -0.3152992 0.122964926
0001e0 67 ca a2 be 6d 6f 08 3d d7 89 87 bc 7f e3 d3 bd
       -0.31795046 0.03330939 -0.01654522 -0.10346126
0001f0 f8 79 12 be 98 3c 81 be 5f a7 2f 3e c6 f4 79 bd
       -0.1430434 -0.25241542 0.17153691 -0.06102445
000200 46 da 3c 3e 9b 7b 4f be 96 96 38 3d a4 a2 39 3e
       0.1844264 -0.20261995 0.045065485 0.18128449
000210 68 66 0e 3d 27 b1 26 bd 33 08 b0 be 87 c8 73 3d
       0.03476563 -0.04069629 -0.34381256 0.05951741
000220 04 06 a5 be 63 bf a5 bd df 25 a9 bc 7b 8e bd be
       -0.32231152 -0.08093145 -0.020647941 -0.37022766
000230 d6 57 25 bd 56 62 e3 bc 40 aa af bb 3c f8 d1 be
       -0.04036697 -0.027756851 -0.0053608716 -0.410097
000240 f6 00 60 bd 70 7a bd be ee 05 4e 3d 76 2c f4 3c
       -0.054688416 -0.37007475 0.050298624 0.029806357
000250 79 51 d5 be ab da b3 be c5 cb 18 bc 4f f5 be bd
       -0.4166372 -0.35127768 -0.009325926 -0.09324133
000260 1b 61 26 bf 0c b6 dc be 7f a2 54 bf 02 90 03 3c
       -0.6499192 -0.4310764 -0.8306045 0.00802994
000270 3c 3f 2b 3e 35 cc 0b 3d 4a 69 48 bd 80 48 67 3c
       0.16723341 0.034130294 -0.048928536 0.014116406
000280 aa 4f e1 bc 09 47 35 3e 44 73 ef be 0d a3 2c bd
       -0.027503807 0.17702879 -0.46767628 -0.042147685
000290 cc bb 78 be 3b 22 f7 be 51 12 dc bc 45 2a 41 3e
       -0.24290389 -0.48268303 -0.026864203 0.18863781
0002a0 4c f2 dc bd 9f 3d 82 be 19 42 36 3e 1a 64 03 be
       -0.10788402 -0.25437638 0.17798652 -0.12831154
0002b0 14 fd 4d bc f4 ee 4e bd 0b 85 ee 3b 14 2e 98 be
       -0.012572546 -0.050520852 0.0072790436 -0.29722655
0002c0 63 06 bf bc 99 99 d1 be 1e e6 3c be 38 7a 31 bf
       -0.023318475 -0.40937498 -0.18447158 -0.69327116
0002d0 8c c1 c8 be b5 ca 3a bf 34 97 c9 3c 00 0d 72 be
       -0.39210165 -0.72965556 0.024608232 -0.23637772
0002e0 60 ba 9d bb 04 49 ad be be eb da bb 5c bb 10 bc
       -0.0048134774 -0.3384477 -0.0066809347 -0.008833732
0002f0 80 a7 7b 3e 1b f4 6b 3d 32 c2 43 bd 0c 7a 7a 3d
       0.24575615 0.057605844 -0.04779262 0.06115155
000300 13 f4 e2 3b 8a 01 ee bd be 84 79 3d 01 dc 7e bc
       0.0069260686 -0.11621387 0.06091761 -0.015555383
000310 61 9a e7 be 30 6b 2e 3d ee 99 28 bd b8 eb 85 3c
       -0.4523497 0.04258269 -0.041162424 0.016347751
000320 2e ae 7a 3d 75 94 19 3e 8d ba 53 3c 37 41 a8 be
       0.061201267 0.14998038 0.012922895 -0.32862255
000330 96 f1 89 be ce 29 b4 3d bb ff d5 bd f0 2b 84 3d
       -0.26942128 0.08797036 -0.10449167 0.06453693
000340 15 ae 14 be 60 0f 46 3d a6 79 b2 3c 82 47 52 be
       -0.14519532 0.048354506 0.021786522 -0.2053509
000350 b6 3e 5f be 3d 88 6c bc 0f 74 42 3d 04 24 db be
       -0.21801266 -0.014436779 0.047473963 -0.42800915
000360 66 11 eb be c4 29 49 3d dc 16 88 bb d5 75 99 be
       -0.4591171 0.049112096 -0.0041531157 -0.2997271
000370 32 76 db 3d 14 63 c3 bd c6 ac eb bc a9 43 bf be
       0.10715903 -0.09540382 -0.028768908 -0.37356308
000380 cd 16 46 be d6 c5 c0 3c ef 88 82 bd f8 4d 52 3e
       -0.19344635 0.023531836 -0.06373774 0.20537555
000390 a8 59 d3 bd f2 2b e5 3c 4a 81 70 be 21 57 09 3d
       -0.10319835 0.027975056 -0.2348682 0.03353036
0003a0 97 bd 87 be 9d c6 ab 3c 63 36 02 be 67 b6 5f bd
       -0.26511833 0.02096873 -0.1271606 -0.05461731
0003b0 4e 14 a4 3d d9 f8 38 be 57 86 4d 3d 8b 3e 19 be
       0.08011685 -0.18063678 0.050176945 -0.14965264
0003c0 e0 f9 17 bf 48 db f9 bc 9c 43 6c be 44 85 d6 be
       -0.59365654 -0.03050007 -0.23072666 -0.4189855
0003d0 35 72 2c be a4 f8 01 bd ca 98 65 3c af 30 76 be
       -0.16840442 -0.031731263 0.0140134785 -0.24042009
0003e0 a2 3c 0f 3c f7 89 a4 bd 29 cc 4f bd c0 a8 6e be
       0.008742483 -0.08034127 -0.05073181 -0.2330656
0003f0 0b a8 37 bf 02 69 a6 be d6 b5 69 bc a6 6d c3 3c
       -0.7174079 -0.3250199 -0.0142645445 0.023855995

hidden.1.bias f4 [128]
000000 4e 65 4c 3e c5 f5 27 3d 30 8a 80 bf 63 a6 0b 3e
       0.1996052 0.04100587 -1.0042171 0.1363769
000010 79 d8 06 bf 7d 73 60 bf 98 91 c1 3d fb 9b 5b be
       -0.5267406 -0.8767622 0.09451598 -0.2144622
000020 9a 53 0b bd 19 45 ae 3d 57 dc 56 bf e5 f2 7e 3e
       -0.034015276 0.08509273 -0.8392996 0.24897344
000030 8a cb 3b bf fe 66 25 3e 15 51 ba bf 31 b3 e9 3d
       -0.7335745 0.1615257 -1.4555994 0.11411131
000040 ca d8 87 bc fe 40 0f 3e ad a0 f5 3b a8 cc 91 3e
       -0.016582865 0.13989636 0.0074959607 0.28476453
000050 2b 0d 16 3e a3 a4 9c bf 8e 3e ca be 8e 9a 5f bc
       0.1465346 -1.2237743 -0.3950085 -0.013647689
000060 4a bb f9 bc ef d6 4a bf b7 9f 36 be d1 35 78 bf
       -0.030484814 -0.7923421 -0.17834364 -0.9695712
000070 1c 49 36 3d ca 9f fd bb b6 2a c1 3c fc 74 71 be
       0.044503316 -0.0077399956 0.023579936 -0.23579782
000080 e4 86 c8 bf 93 ce dc be 16 39 e2 3d c7 9f 66 be
       -1.5666165 -0.43126354 0.110460445 -0.22521888
000090 74 1c 27 be 3a 4a 50 3e 99 a5 a9 be e4 24 94 bf
       -0.16319448 0.20340815 -0.33134153 -1.1573758
0000a0 ad 12 a7 bc 4b 9a 94 bd 69 3b 81 bd e4 1f 32 bf
       -0.020394647 -0.072559915 -0.0631016 -0.6957991
0000b0 b9 38 6c 3d 89 a7 35 3e f3 b9 5f 3e 7e 3a f1 3d
       0.057671282 0.17739691 0.21848278 0.117787346
0000c0 b8 1a 37 3e 9c 30 6b 3e bb 0f d5 3e 7a 8c d8 be
       0.17881286 0.22967762 0.41613564 -0.42294675
0000d0 76 5a cd bd 96 71 90 3d 24 f2 6d bc d9 7b 46 bf
       -0.1002702 0.07052915 -0.014523063 -0.77532727
0000e0 8a d1 20 3e 3b ad 80 bd 20 21 2b 3e 3e eb 06 bd
       0.15704933 -0.06283041 0.16711855 -0.03293919
0000f0 1e 66 f0 be e4 0e e9 bb a4 83 a6 3d e3 87 84 bd
       -0.4695291 -0.007112371 0.08130577 -0.06471231
000100 8c f5 d1 bf 50 62 57 3c c0 c9 63 be c4 8c df 3e
       -1.640306 0.013145998 -0.2224493 0.43662083
000110 08 f4 9d bf 21 d4 85 bf 32 7e 05 bd 1f e7 81 3e
       -1.2340097 -1.0455362 -0.032591052 0.25371644
000120 f6 75 69 bf 97 49 fd be 54 4a 0d be 12 d7 a4 bf
       -0.9119562 -0.49470207 -0.13797885 -1.2878134
000130 cc 4c 9c bd 57 49 4e be ec 52 8f bf b0 35 d6 be
       -0.07631835 -0.20145164 -1.1197181 -0.41837835
000140 a9 f3 db bf cc 17 08 c0 41 e7 00 bf 50 8f b9 bc
       -1.7183734 -2.1264524 -0.50352865 -0.022651345
000150 52 04 79 bc 01 1a 57 3e b4 4f 9e be 11 68 a6 bf
       -0.015198784 0.21006013 -0.30920184 -1.3000509
000160 28 b9 f6 bd 22 20 53 be d4 74 ec bc 13 1f c2 bf
       -0.120470345 -0.20617726 -0.028864302 -1.5165733
000170 9a 8f 7f be 97 a6 30 3e 60 b8 ab be de c9 77 3e
       -0.24957123 0.17251049 -0.33539104 0.241981
000180 99 3d 3e bf 0f a0 44 3e 63 59 13 be a6 f2 3e bc
       -0.7431274 0.19201683 -0.14389567 -0.011654532
000190 52 11 ce bc da 64 69 bd 07 46 ea bc ba 10 36 3e
       -0.025154743 -0.056980945 -0.028597845 0.17779818
0001a0 ce f9 f6 bc 62 ac f5 3d bc 1f 4b 3e 4e 1f 6c 3d
       -0.030148413 0.1199577 0.19836324 0.057647042
0001b0 4e 92 c0 be 5b 40 c1 bc 2c 77 9f 3e 19 b7 63 3d
       -0.37611622 -0.023590257 0.31145608 0.055594537
0001c0 a2 a2 51 bf 0a c9 19 3e 65 36 8e be cd 24 b9 3d
       -0.8188878 0.15018097 -0.27775875 0.09040222
0001d0 c8 dd 4b bf 77 cc 1f 3d ce 58 04 3d 5b 33 d1 bc
       -0.79635286 0.039013352 0.032311253 -0.025537184
0001e0 e5 21 6e 3d f6 01 99 be e3 fe 03 be da 38 a0 bf
       0.058137793 -0.2988431 -0.128902 -1.251735
0001f0 43 5b d4 3d 1a 2f af be f6 d7 72 3d 76 87 88 3e
       0.10368969 -0.34215623 0.059287988 0.26665848

hidden.2.weight f4 [64, 128]
000000 35 72 cb 3d f2 6f 51 be d0 99 48 3d d5 25 83 3d
       0.09933893 -0.2045286 0.048974812 0.064037
000010 33 90 05 be 4b 01 14 bf 72 d5 8a be 81 aa 2c bf
       -0.13043289 -0.5781447 -0.2711597 -0.6744767
000020 33 35 23 3b a6 42 1d bf c5 f5 37 3e 40 9a 69 3d
       0.0024903535 -0.6142982 0.17964847 0.05703187
000030 be 0e a3 3d 49 65 15 3e c2 01 fd 3d 2d 23 db bd
       0.07961796 0.14589418 0.12353851 -0.107000686
000040 23 ab d1 be 7a 01 b4 be 4b 88 ed be 25 05 3b bd
       -0.4095088 -0.35157377 -0.46393046 -0.045659203
000050 fe 21 6e 3c c5 fc c3 bd da c7 61 be e1 c0 d4 bd
       0.014534472 -0.09569696 -0.22048894 -0.10388351
000060 00 fc 45 be 09 fa 00 bf ed 87 2b bf 68 13 40 3e
       -0.19334412 -0.50381523 -0.6700428 0.18757403
000070 f4 ec 3c bf 6a 10 01 3d 29 36 d7 bd 79 93 7e 3d
       -0.7379906 0.031509794 -0.10508377 0.06215236
000080 ad 76 05 be c7 81 0c 3e 77 57 05 bf 7b 14 06 bf
       -0.13033552 0.13721381 -0.52086586 -0.52375
000090 2a fb 89 bc bc ef 2a be ea b7 27 be ca 8d 91 3a
       -0.016843397 -0.16693014 -0.16378751 0.0011104879
0000a0 3a d0 14 bf 8c 5a c8 3d 1e a0 32 be 28 b1 2c bf
       -0.5813023 0.097828954 -0.17443892 -0.6745782
0000b0 ab a2 e9 bd cf ed a0 3d 87 29 02 bd cc af 4a be
       -0.114079796 0.078578584 -0.031777885 -0.19793624
0000c0 5f a5 95 bd f7 b4 d3 bd 23 9e d2 3d 2c e5 8b be
       -0.07306933 -0.10337251 0.102840684 -0.27323282
0000d0 28 c8 d5 3d e6 fd 44 3e 23 8d a7 be 4c 5d 87 3b
       0.104385674 0.1923748 -0.32724866 0.004130995
0000e0 29 70 cf be a1 4a 1c 3d b7 82 88 3d 38 18 19 bf
       -0.4051526 0.03815711 0.06665557 -0.5980258
0000f0 77 45 69 be 22 67 ad be 7a 70 bb bd 49 cf 97 be
       -0.22780405 -0.33867747 -0.091523126 -0.29650334
000100 f1 9d 1c be bf 1a cc be aa d6 ad 3c 19 d2 96 bc
       -0.15294625 -0.39864156 0.021220524 -0.01841073
000110 09 f8 08 3e 5f c9 18 bf d6 61 ca be d0 d7 32 be
       0.13375868 -0.5968227 -0.39527768 -0.17465138
000120 67 53 dc 3b cd 86 1f bb f6 25 bf be 52 13 22 3e
       0.0067238095 -0.0024341822 -0.3733365 0.15827683
000130 b8 0c 9f bd 8d d6 1a bf 19 4a a2 be 1d f9 08 bf
       -0.07766098 -0.6048363 -0.31697157 -0.53505117
000140 70 00 1c 3e 6a 6c 56 3d 77 88 1d be 0d e4 3d bf
       0.15234542 0.052349485 -0.15384088 -0.741761
000150 7e be fd be 43 22 31 bf d3 dd d1 be 80 a0 5c be
       -0.49559397 -0.69192904 -0.4098955 -0.21545601
000160 b9 c2 9f be d4 ec 11 be fb e0 9a 3c 91 22 5a be
       -0.3120325 -0.14250499 0.018906107 -0.21302249
000170 e6 77 a3 3d e2 14 a6 bc 55 52 cb be 43 91 f9 3c
       0.07981853 -0.02027363 -0.39711252 0.030464774
000180 58 46 f0 be 33 66 2b bd 63 26 00 3d 26 af 08 bf
       -0.46928668 -0.04184551 0.03128661 -0.53392255
000190 f6 51 20 3c 05 53 02 bd 42 4d ac 3c 49 59 a0 bc
       0.009785166 -0.031817455 0.021032933 -0.019573824
0001a0 45 89 6e be 8f 61 ab be 57 a8 74 be a3 75 8b be
       -0.23294552 -0.3347287 -0.23892342 -0.27238187
0001b0 ef 81 4c bf 07 5b cd be fe 4f f5 be 30 2e 24 bf
       -0.7988576 -0.4010851 -0.47912592 -0.64132977
0001c0 af bb 05 bf 5e 26 89 bd 4a e1 36 be 4b 8b c6 3d
       -0.5223951 -0.06696771 -0.17859378 0.09694537
0001d0 6b 6f cb be 9e 69 61 3c 8f cd d9 bd 1a cd f3 be
       -0.39733443 0.013758091 -0.1063491 -0.47617418
0001e0 5f 21 be be 85 6b 04 bf 67 74 1e be 59 f9 79 3d
       -0.37134835 -0.5172656 -0.15474091 0.061028812
0001f0 ae 4a d5 be 2f 88 78 be 9e ee 06 3d c1 59 f5 be
       -0.4165854 -0.242707 0.032942407 -0.4792004
000200 32 f2 1d bd 98 f2 2d 3d dc 45 39 3d d3 3c c5 be
       -0.038561054 0.042467684 0.04523264 -0.38522968
000210 7a db c0 be 80 73 15 bd 96 1b f8 3d e4 56 26 be
       -0.37667447 -0.036487103 0.121146366 -0.16244084
000220 bf b9 e3 be 06 42 2f 3d e0 8d 19 3b 21 09 38 be
       -0.4447765 0.042787574 0.0023430511 -0.17972232
000230 fc 5a 02 bf be a2 09 bf ab cd 08 be e3 01 df bc
       -0.5092008 -0.5376395 -0.13359706 -0.02722258
000240 a0 08 f9 3d c3 f4 e1 3d be 3f 68 be fb 56 40 be
       0.12159848 0.11033013 -0.22680566 -0.1878318
000250 48 b0 9c 3b 7f 3c 1b 3a fd 22 32 bf 54 e4 c5 be
       0.0047817566 0.00059217954 -0.6958464 -0.38650763
000260 f6 0e 74 be d1 04 6b 3e 29 1d dc bd 6a d5 13 bf
       -0.23833832 0.22951056 -0.10747749 -0.5774752
000270 46 56 4a be ab d2 4b be bb 1d ad bd b7 f8 25 3d
       -0.19759473 -0.19904582 -0.08452936 0.040520396
000280 4d 59 b6 b9 5e 34 0a be a7 a2 22 be 98 b2 da be
       -0.0003478028 -0.13496539 -0.1588236 -0.4271438
000290 e6 1b db 3d 38 dd 29 be 03 e0 4c 3d 66 73 b4 3d
       0.106986806 -0.16588295 0.05001832 0.08811073
0002a0 b0 b5 bc be 74 e1 19 3c 5d f7 4f be 7c f5 3a be
       -0.36857367 0.009392131 -0.20309205 -0.18257707
0002b0 1d 13 a8 3d cf af 44 be 66 37 ff bd 97 0b 17 3c
       0.082067706 -0.1920769 -0.12461738 0.009219072
0002c0 7b db d9 bc 70 6d 5b be 1f 1e cf bd 8f 19 05 3e
       -0.026593914 -0.21428466 -0.10113167 0.12998031
0002d0 d6 8c 0a be de 94 fa be a8 93 5b 3d 57 29 ab bd
       -0.13530287 -0.48941702 0.053607613 -0.08357494
0002e0 a7 fa 17 3d 50 5f ca be be b4 b2 bd af 1b 4f be
       0.037104275 -0.39525843 -0.0872588 -0.20225404
0002f0 3d 22 1a bf 6a 86 9f be ba 80 66 bd dc 90 86 be
       -0.60208493 -0.31157237 -0.056275107 -0.26282394
000300 62 c3 3e 3d ce 02 a7 bd b0 52 09 be 88 aa 0c bf
       0.04657305 -0.08154832 -0.13410449 -0.5494771
000310 46 1c 63 be f2 e3 b5 bd d8 59 f1 3d cc 3e 5b bf
       -0.22178754 -0.08881368 0.117847145 -0.85642695
000320 2a 68 92 be 5a 51 1b bf ae c9 6a be bc f3 28 be
       -0.28595096 -0.6067101 -0.22928497 -0.16499227
000330 c7 23 0a bf cb c5 22 bf 2e cc 4e be 2c c3 17 3d
       -0.5396084 -0.6358306 -0.20195076 0.037051365
000340 37 a7 9f bd af f2 14 3d 15 a5 d6 bc 15 2d a1 be
       -0.077955656 0.036364254 -0.026201764 -0.31479707
000350 ed 81 46 be ab 76 67 3d ba bc 14 bf 29 74 71 bd
       -0.193855 0.056509655 -0.58100474 -0.05894867
000360 0f 33 b1 be 9d 61 f0 be 36 40 d2 be 67 db c2 3d
       -0.34609267 -0.46949473 -0.41064614 0.09514504
000370 43 a2 38 3d 2f 4e f6 bd bf c6 ad be 58 13 92 be
       0.04507662 -0.12026631 -0.33940694 -0.28530383
000380 98 5c f9 bd cf 65 f9 3d 89 dd 85 be cf ce cd bd
       -0.12175864 0.121776216 -0.2614558 -0.10049211
000390 ed bc c4 be ac 47 16 bf b4 86 10 be 44 73 40 bf
       -0.3842539 -0.5870311 -0.14113885 -0.7517588
0003a0 f7 b1 8b be d9 a3 96 3d ac 37 40 bf 80 db ac 3d
       -0.27284214 0.0735547 -0.7508495 0.08440304
0003b0 79 8f 60 3d ff 3a 77 3c 20 1c 9f 3d cd 38 1b 3e
       0.054824326 0.015089749 0.07769036 0.15158387
0003c0 1d b4 13 be 2e af 63 be 5d 44 63 3d a5 85 33 be
       -0.14424177 -0.22234794 0.05548512 -0.1753145
0003d0 5f 06 14 bc 53 59 c5 be c9 3d 78 be 68 ba 15 be
       -0.009034722 -0.3854471 -0.24242319 -0.1462189
0003e0 ef a0 c6 bd 3f 23 dc bd a6 f9 f7 bd 97 65 8b bd
       -0.096986644 -0.1074891 -0.121081635 -0.06806486
0003f0 94 df 52 3d 21 6c 1a 3d 09 70 b9 bd 39 a4 bf 3d
       0.051482752 0.037700776 -0.09054572 0.09357495

hidden.2.bias f4 [64]
000000 80 5f 65 3f 10 e5 2d 3f 98 8d 01 3f 4d 51 3e 3f
       0.89598846 0.67927647 0.5060668 0.74342805
000010 0f f6 2c 3f 26 40 33 3f 63 b4 a1 3f ae 0b c0 3e
       0.67562956 0.7001976 1.2633175 0.3750891
000020 c7 c3 5f 3f 02 82 f9 3e 91 e7 70 3f 23 62 8e 3f
       0.8740811 0.48732 0.9410334 1.1123699
000030 45 5d 30 3f 8e 71 5a 3f 03 0d aa 3f 0c 44 40 3f
       0.6889232 0.8532952 1.3285221 0.7510383
000040 1f f1 8c 3f 93 75 28 3f de b3 49 3f 2b 24 7e 3f
       1.1011084 0.65804404 0.7879008 0.9927394
000050 66 5a 7e 3f d2 b4 61 3e b3 b1 1e 3f ce d9 44 3f
       0.9935669 0.22041634 0.619899 0.76894844
000060 13 d7 19 3f 24 0f 85 3f c6 f3 2e 3f 6c ba f1 3e
       0.600938 1.0395246 0.6834072 0.4721254
000070 bb 73 2f be 97 b8 6a 3f 36 64 bf 3e f2 6c 84 3f
       -0.17133991 0.9168791 0.37381142 1.0345747
000080 bb 5a f3 3e eb 7a 22 3f ee ab 54 3f d0 b9 7d 3f
       0.4753016 0.6346881 0.83074844 0.9911165
000090 fa 75 99 3f 7e e9 53 3f 3e b2 51 3f a1 12 52 be
       1.1989129 0.82778156 0.819126 -0.20514919
0000a0 af 39 24 3f b1 fb 3b 3f db 0e fe 3e 16 57 0d 3f
       0.6415052 0.73430926 0.4962071 0.5521101
0000b0 63 0e 06 3f 3f c3 16 3f b3 7d a1 3f 45 48 de 3e
       0.523657 0.5889167 1.2616485 0.43414512
0000c0 c1 bb 72 3f 3f a3 1b 3f 3f 60 5f 3f 5c 13 ce 3e
       0.9481774 0.6079597 0.87256235 0.40249145
0000d0 10 9c 32 3f 9d 8b 26 3f ab 19 b7 3f 00 26 c2 3f
       0.6976938 0.6505678 1.4304708 1.5167847
0000e0 0b 7e 24 3f c4 dc 68 3f 90 07 4d 3f c4 c0 f9 3e
       0.64254826 0.9096186 0.80089664 0.4877988
0000f0 d9 b7 54 3f aa 5d a4 3f b3 f8 0c 3f 7b 13 f4 3e
       0.8309303 1.2841084 0.55066985 0.47671112

output.weight f4 [10, 64]
000000 4a b8 b6 3d 9e 32 e1 bb 18 b7 bd 3d 51 a3 67 bc
       0.08921869 -0.006872489 0.09263438 -0.014138059
000010 d9 94 4c bb c9 9a b4 3d b1 9b 22 bd 3e 7e 93 3d
       -0.003121665 0.088185854 -0.03969926 0.07201813
000020 d8 34 4e be 23 47 05 be 45 08 f6 3d 1d 8f 5f 3d
       -0.20137346 -0.13015418 0.12013296 0.054579843
000030 e7 3c b7 bd 4b b8 e7 bd dd ae 03 3e f8 0b 04 3b
       -0.08947163 -0.11314448 0.12859674 0.0020148735
000040 a7 48 6f 3d b2 b1 de bd e2 04 eb bc 45 cf 09 3b
       0.058418896 -0.108737364 -0.028688852 0.0021028083
000050 8d de 57 3d b4 da 23 3d 0f 2e 4a be 11 41 86 bd
       0.052702475 0.040003493 -0.19744132 -0.06555379
000060 4f 6e 24 be 59 93 ff 3c 3a 39 29 bd 86 b4 e3 bd
       -0.16057704 0.03119819 -0.04131434 -0.111184165
000070 e5 c2 05 bc 98 3a 8d bd ad 37 9e be 36 95 f4 bd
       -0.008164142 -0.068959415 -0.30901852 -0.11942522
000080 f0 4a e1 be 23 56 5e bd 17 10 4c bd 1f 39 b8 3d
       -0.44002485 -0.054281365 -0.049820032 0.0899527
000090 56 99 be 3d 26 3b 81 3c 59 83 2b be cd fd 88 3d
       0.0930659 0.015775274 -0.16749324 0.06689034
0000a0 f2 98 c8 bd 77 45 eb 3d 82 e3 0c be ae 44 09 be
       -0.09794797 0.11487859 -0.13758662 -0.13405105
0000b0 60 d8 3b be 7b f8 4f 3d a2 bd 60 bd 43 ab 33 be
       -0.1834426 0.05077408 -0.054868348 -0.175458
0000c0 77 19 aa 3d f3 5e d3 3c c0 33 2d 3c 5e 3c 96 bd
       0.08305638 0.025802111 0.01057142 -0.07335733
0000d0 d2 d9 51 bd d5 55 ee 3c 2d 81 25 3d 9d 9c db bd
       -0.05123312 0.029093662 0.040406395 -0.10723231
0000e0 af a0 04 3e ba df c1 3d 09 f9 a9 bc 2f 72 82 3d
       0.12951921 0.094665006 -0.020748632 0.06369435
0000f0 f0 04 7c 3b ac d7 15 3c 96 f4 15 bd 0b cb 18 3d
       0.0038455091 0.009145658 -0.03661021 0.037303012
000100 28 34 78 3d 73 b8 f8 bc 12 68 5c be b3 93 11 be
       0.060596615 -0.03036139 -0.21524075 -0.14216499
000110 5d b7 ca 3d 25 41 30 be 7b 4c ad bd dd 15 92 3d
       0.09898255 -0.1721235 -0.08461853 0.07133076
000120 22 3c a7 bb d2 7e 47 bd 32 69 13 3e 8f fc 82 bd
       -0.005103604 -0.04870493 0.14395598 -0.06395828
000130 06 5c 9a 3d de 28 f5 bd 12 9a a5 3d 52 8f 04 be
       0.07537083 -0.119706854 0.08086027 -0.12945297
000140 d4 85 33 be 8f 75 57 bd d5 df 0c 3e e5 6f 0b be
       -0.1753152 -0.052602347 0.1375726 -0.13616903
000150 4b 7c e0 3d 9b 87 a4 3d db 11 73 be f6 db 06 3d
       0.10961207 0.08033677 -0.2373728 0.032924615
000160 bf 26 41 be 27 52 e6 bd df 8d 59 be b9 2f 71 3d
       -0.18862437 -0.11246138 -0.21245526 0.058883402
000170 c0 d3 05 3e bb 80 7e bc cf d8 77 be e9 f2 01 3d
       0.13069057 -0.015533621 -0.242038 0.031725798
000180 97 b5 b1 be c3 ab 9b 3d 36 53 5f be 4d b3 c6 3d
       -0.34708855 0.0760112 -0.21809086 0.09702168
000190 18 77 9e 3d a6 95 79 3d 4c e0 1d be 98 8c 29 3e
       0.07737559 0.06093373 -0.15417594 0.16557539
0001a0 9b 1c 24 be bf 5f 22 3d f4 db 68 be 89 4d 15 be
       -0.16026537 0.03964209 -0.22740155 -0.14580359
0001b0 8b b0 63 be e0 09 9b 3d e9 44 a7 bd 75 1c 11 be
       -0.22235315 0.07570243 -0.081674404 -0.14171012
0001c0 8d ac ff bd 41 d7 c9 3d e3 aa 05 3e 6e ed 13 3e
       -0.12484083 0.098555095 0.1305347 0.14446041
0001d0 e8 3c bb bc 47 6b 3b be 5d a0 0e be 21 18 80 bb
       -0.02285619 -0.18302642 -0.13928361 -0.0039091264
0001e0 22 24 04 3e 25 95 21 be 97 c6 bb 3d f0 f7 d4 bd
       0.12904409 -0.1577955 0.091687374 -0.10398853
0001f0 98 8f 0a bc d3 07 44 bd e3 4b c6 bd 19 28 fc 3d
       -0.008457087 -0.047859024 -0.09682443 0.123123355
000200 83 9f 24 bd 27 c7 ac 3d 86 4c 01 bd f7 a0 04 3c
       -0.040191185 0.08436423 -0.03156712 0.008095018
000210 81 8e 79 3c ed da a6 3d 0c d0 3e 3d fc aa 62 bd
       0.0152317295 0.081472255 0.046585128 -0.055338845
000220 a9 4e 40 be ee fe d6 3d 90 4d f2 bc 2a 0e cd bd
       -0.18780006 0.10497843 -0.029578 -0.10012467
000230 3d 75 49 3d 30 44 60 3d 99 f2 f5 bc f6 31 f6 3c
       0.049184073 0.05475253 -0.030022906 0.03005312
000240 dc a5 b5 bd 62 02 9c be cf 53 11 be cc c9 b1 3d
       -0.08869526 -0.30470568 -0.14192127 0.08681068
000250 fc 77 48 3d 36 ac 71 bd 64 2f 32 be c0 90 20 be
       0.04894255 -0.059002124 -0.1740089 -0.15680218
000260 39 82 c7 bc 55 06 0f be 88 1e 74 bd d1 04 77 be
       -0.024354087 -0.13967259 -0.05959943 -0.24122931
000270 1d ca 6d bd 29 fc 4d bd f7 51 88 be 1d 14 6e be
       -0.05805408 -0.050289307 -0.26625034 -0.2324986
000280 76 e7 d7 be ef 0c 9e 3d 45 d1 2e be 83 7f 4f bc
       -0.42168778 0.07717311 -0.17072017 -0.0126646785
000290 66 10 b8 3d ce f5 8a bd ce 48 19 be d4 c5 fc 3b
       0.08987503 -0.06785165 -0.14969179 0.0077140126
0002a0 f4 3c 22 3d 2f fa 97 3c 6d 3b 77 be ce e9 0a 3d
       0.03960891 0.018551914 -0.24143763 0.03391438
0002b0 8c c9 2a bd 9a 28 11 bd d1 62 5e 3d 6a d2 87 be
       -0.041696116 -0.03543911 0.054293457 -0.2652772
0002c0 86 4f d0 3d 41 63 93 3b 3f a3 66 bd fc 42 c0 3d
       0.10171418 0.004497916 -0.056308027 0.09387776
0002d0 7d ac bb 3d ca 1f a6 bd e0 5d d4 bc ee 16 3b bd
       0.09163759 -0.08111532 -0.02592367 -0.045676164
0002e0 1b a1 57 3c bd d5 45 bd 4d 50 6e bd 4b 57 33 3d
       0.013160969 -0.04829954 -0.05818205 0.04378442
0002f0 1a b8 3a be 80 14 ac 3d 89 3a be 3d c2 8d a6 3c
       -0.18234292 0.084023476 0.092885084 0.020331267
000300 ae 9c 13 bd 95 5d 38 be a4 05 e0 bd 6d b4 21 3d
       -0.036038093 -0.18004449 -0.10938576 0.039478708
000310 ae a1 87 3d 95 8a 02 bd a1 67 1d be 4b 27 f1 3d
       0.06622635 -0.031870443 -0.15371563 0.11775073
000320 65 2b d2 bc 38 5d 06 be 3c 02 ff 3d 66 06 ea bd
       -0.025655458 -0.13121498 0.12451598 -0.11427002
000330 17 e6 d5 bd a4 8e 26 be bb 8f 8b 3c cb cb 87 bd
       -0.10444277 -0.1626535 0.01703631 -0.06630667
000340 38 c4 42 bc 23 9f 84 be ed d3 4e 3c 18 02 03 be
       -0.0118876025 -0.25902662 0.012623769 -0.12793767
000350 fd a2 14 3b 08 e4 db 3d 27 15 c1 be ab df 9a 3d
       0.0022680156 0.10736853 -0.3771145 0.075621925
000360 69 5a a7 be b5 b1 ab bd 6d d7 e9 bd b5 cd 81 bd
       -0.32686165 -0.08383504 -0.11418042 -0.06338064
000370 90 f4 54 3d 79 1a 13 be fe 12 a8 be de da 0d be
       0.051991045 -0.14365567 -0.3282699 -0.13853022
000380 4a 3b bb be 81 9d 97 3d 75 dd 54 be c8 18 82 bd
       -0.3656867 0.07403088 -0.20787604 -0.06352383
000390 05 d4 cb 3b 65 00 1e bd c6 bf 18 be fc 2b 21 3d
       0.006220343 -0.038574595 -0.14916906 0.039348587
0003a0 77 7a 22 bd f0 7a f7 bd b4 6a 90 be 94 d1 82 be
       -0.039667573 -0.12083995 -0.28206408 -0.2555052
0003b0 81 ab 94 bd 60 25 c4 3d 9d ef b1 bd db bc ac be
       -0.07259274 0.09577441 -0.08688281 -0.33737835
0003c0 e7 a8 4b b9 dd 16 d6 3d b0 16 f0 bd 91 f2 10 3d
       -0.0001942251 0.104535796 -0.11723077 0.03538758
0003d0 0f af 26 be ce ef f7 bd 6c 71 89 bd 10 30 c7 bd
       -0.16277717 -0.12106286 -0.06711087 -0.09725964
0003e0 1e ff 22 3e 17 b7 a2 bc b2 b1 fe ba 5f 08 98 bd
       0.15917632 -0.019862695 -0.001943162 -0.07423472
0003f0 78 12 cc 3c 05 cc c2 bd 7e 43 40 be 50 d3 0d 3e
       0.02491115 -0.0951157 -0.18775746 0.1385014

output.bias f4 [10]
000000 0f 1e 8c be 62 85 ea bf 5d 79 35 3e 0f df 3c 3f
       -0.27366683 -1.8321955 0.17722078 0.7377786
000010 b5 d1 e4 3e da cd 85 be c9 18 61 3d c3 08 ec 3e
       0.44691244 -0.26133615 0.054955278 0.46100435
000020 85 48 19 bf 10 cb 4e be
       -0.5987628 -0.2019465
